reinforce-baseline/models/LunarLander-v2-5000-model.pt (torch, 4303 bytes, 4 tensors)

weight f4 [32, 8]
000000 e5 8c 94 be 31 57 87 be 16 fb 16 be 75 4e c3 be
       -0.29013744 -0.2643371 -0.14744219 -0.38145795
000010 a9 ff 68 3e 53 66 b3 3e ff 5a 89 3d 76 34 59 be
       0.22753777 0.35039005 0.06706809 -0.21211419
000020 6b 0a 19 3e 7b 07 76 bb d3 f7 ab be 6d 75 67 bf
       0.1494538 -0.003754108 -0.33587512 -0.9041355
000030 6a 51 1e bd fa ee 8a 3e 88 7e 32 be b9 9f a2 3c
       -0.03865186 0.2713545 -0.1743108 0.019851552
000040 53 7b 99 3e 11 79 06 bd f3 4c a4 bc 76 65 8d bf
       0.299769 -0.0328303 -0.020056223 -1.1046588
000050 0c 36 51 bf 1e b1 b3 be 0c 0e 87 3e 63 6f 29 bc
       -0.81723094 -0.35096067 0.26377904 -0.010341498
000060 f5 b0 17 3e 1d ca 83 bd ee 8a 06 3f 87 84 16 bf
       0.14813598 -0.064350344 0.5255574 -0.5879597
000070 21 a3 47 bf af a8 f9 bd bd a8 a0 3d 67 4e 9c be
       -0.7798329 -0.12190377 0.07844684 -0.30528566
000080 7e 4b 1c 3e 6e cf 21 be 73 dd 6f 3e 78 07 96 3e
       0.15263173 -0.15801784 0.2342432 0.29302573
000090 49 18 ce bd 86 3a d2 be b3 c9 0e 3e f8 48 07 3e
       -0.10063226 -0.41060275 0.1394413 0.13211429
0000a0 98 4b 70 bc b6 77 2a 3e 43 be c3 be d4 d0 05 3f
       -0.01466646 0.16647229 -0.38231096 0.5227177
0000b0 49 ea 3c 3f 39 2f b0 3e dc bd c1 bd db 92 8d 3e
       0.7379499 0.34411028 -0.09460041 0.27651104
0000c0 c7 7e b5 bb 07 08 9e 3e 27 e5 c7 3e c6 bf a2 3e
       -0.0055387947 0.308655 0.39042017 0.31786937
0000d0 0a 6d 96 bf 17 37 ed bd 18 61 5d 3e b5 0c 2c 3e
       -1.1752026 -0.11582773 0.2161907 0.16801722
0000e0 90 53 d5 3e 21 22 8b be 1e da d3 bc b0 6d 7e 3f
       0.41665316 -0.27174476 -0.025860842 0.9938612
0000f0 9e 61 9e be 50 64 8d 3d d8 59 a3 3d da 44 6a 3e
       -0.3093385 0.06903899 0.07976121 0.22877827
000100 34 4d 88 be b1 cb 05 bf 79 97 6f be 43 e0 f4 bd
       -0.266214 -0.52263933 -0.23397626 -0.11956837
000110 e3 06 8b 3e 89 1d 1e be 42 10 0f bb a8 83 97 3e
       0.27153692 -0.15440954 -0.0021829759 0.29592633
000120 57 54 32 3e fa 58 7d be 12 2b 34 be a3 b4 8a 3f
       0.17414986 -0.24740973 -0.17594555 1.0836376
000130 86 a4 54 bd bf b4 3f 3e 24 55 89 3e 24 bd 70 3e
       -0.051914714 0.18721293 0.2682277 0.23509651
000140 e9 80 72 3e c4 b7 29 3e bc e7 df 3e 9d 8e ec be
       0.23681988 0.16574007 0.43731487 -0.46202555
000150 56 67 8a bf 09 8c 13 bf 10 0e ef 3d 95 ee 1d bd
       -1.0812786 -0.5763555 0.11672604 -0.038557608
000160 3c 1c 43 be c7 cf fe 3d f3 7d 34 3e 77 56 24 bf
       -0.1905374 0.12441974 0.17626171 -0.64194435
000170 f5 8f 5a 3f 6f 41 27 3f 8b 48 9b 3e ba 66 3b be
       0.8537591 0.6533422 0.30328783 -0.18300906
000180 e5 3a 19 be 6c b5 f0 bd 41 e5 05 be a9 92 21 3e
       -0.14963873 -0.117533535 -0.13075735 0.15778603
000190 7c 8e 23 3d bc a0 c4 be 54 e8 13 3e b9 3e bb bd
       0.039930806 -0.3840388 0.14444095 -0.09142823
0001a0 60 32 aa 3c 22 38 8c bc a9 b9 f9 be 54 ca 4f bf
       0.020775974 -0.01711661 -0.4877446 -0.81168103
0001b0 e9 30 84 3e 67 d7 f4 3c ef ee b3 be 10 67 c3 3d
       0.25818565 0.029887868 -0.3514323 0.09541142
0001c0 81 61 78 bc 8a 7c 58 be 1e da 1a 3e a6 be 97 be
       -0.0151599655 -0.21141258 0.15122268 -0.2963764
0001d0 b9 e9 0d 3d b2 86 d8 be 5e fc 95 3e df a8 5c be
       0.034646723 -0.42290264 0.29294103 -0.21548794
0001e0 c8 b2 15 bb e4 3a 70 be ec 18 96 3c 6c 75 04 bf
       -0.0022842158 -0.23459965 0.01832243 -0.5174167
0001f0 a3 8c 17 3d e0 4e ae 3d 1c 78 8b be ed ac 2a 3e
       0.036999356 0.08511138 -0.27240074 0.16667528
000200 32 2c 05 3f 63 a0 ba 3e e3 c0 de 3d 67 37 bc 3e
       0.5202056 0.3645049 0.10876634 0.3676102
000210 0b a2 32 bf 21 17 0a 3d 4b dc 80 3d 5e ac 4f 3d
       -0.6977851 0.033713464 0.062920175 0.05070149
000220 b8 46 4e be 54 6e 25 bf 83 6b 13 be ae 2a 34 3f
       -0.20144165 -0.6462147 -0.14396481 0.70377624
000230 b1 cd 96 3e 6a 5e 95 bd 45 61 17 3e 30 79 8e 3d
       0.29453805 -0.07293399 0.14783199 0.069567084
000240 ba ea d7 bd 47 9e f1 3e 2e 51 8e bd ea 65 16 be
       -0.105428174 0.4719107 -0.069490775 -0.14687315
000250 3e 0c 79 3f 60 77 2d 3f 3f b4 c9 be 39 4e d5 be
       0.97284305 0.67760277 -0.3939533 -0.41661242
000260 b9 60 ce bd 6e ec c4 3e 23 fe 86 be ce e4 69 3f
       -0.10077042 0.38461632 -0.26365766 0.91364753
000270 ee 03 c1 3e c8 08 e0 bc 20 39 c7 3e 53 ac 71 3e
       0.3769831 -0.027347937 0.3891077 0.23600893
000280 0f 02 b3 be b1 72 81 bd 8f 47 e8 be d6 49 ba be
       -0.34962508 -0.06320704 -0.45367095 -0.36384457
000290 05 86 25 3f 98 eb 2c bd 1a ca 44 3e 3d c4 cb bd
       0.6465762 -0.042216867 0.1921772 -0.09949539
0002a0 a8 18 2d 3e 99 a8 30 be b4 77 93 bd bd a0 57 bc
       0.16903937 -0.17251815 -0.07200566 -0.013160882
0002b0 f0 4e 7f 3e 94 e3 27 be 10 4b 44 be b0 8a 32 be
       0.24932456 -0.16395408 -0.19169259 -0.17435718
0002c0 74 8b 54 bd 48 76 ab 3e 44 ef 8e 3e be 24 e1 bd
       -0.051890805 0.3348868 0.2791692 -0.10993336
0002d0 e8 72 a3 3e 95 a2 10 3c 93 db 9f 3e 69 83 d8 bd
       0.31923604 0.008827825 0.3122221 -0.105719395
0002e0 6d 09 db 3e d9 61 bf be 73 c4 27 bd 3b 0f 4c bf
       0.4278063 -0.3737934 -0.040958833 -0.7971074
0002f0 10 fa a3 be 40 cd 00 3e 17 68 3c bd d3 f3 07 3e
       -0.3202672 0.12578297 -0.045997705 0.13276605
000300 01 86 ca bc 88 db a4 bd 53 bf a7 3e c3 1f 3e 3d
       -0.024722101 -0.08049685 0.32763156 0.04641701
000310 0a db d3 3d 89 43 39 bd 47 d4 66 bd cd b3 8a 3d
       0.10344513 -0.045230422 -0.056354787 0.067725755
000320 e0 51 e1 3e c2 41 cf 3e 78 b0 8b 3e f2 50 e5 3e
       0.44007778 0.40479857 0.27283072 0.4478832
000330 c5 1e 24 bf 54 f5 b0 bd b7 aa 22 bd a9 5b 51 3e
       -0.6410945 -0.086405426 -0.039713588 0.20445122
000340 01 e3 cc 3d 82 6e 0a 3e 9d 1f d0 be c3 8c 7e be
       0.10004235 0.13518718 -0.4064912 -0.24858384
000350 14 3f 10 3f f1 b4 45 3e 4e 19 85 be 49 ac ac be
       0.5634625 0.19307305 -0.25995868 -0.33725193
000360 47 f6 b3 be 18 56 52 bf a6 ef 8b bd 2b 4e 5b 3f
       -0.35148832 -0.8216262 -0.06832819 0.8566615
000370 d7 e4 80 3b cc 37 04 3d 27 bf e2 3d f4 39 9a 3d
       0.00393353 0.032279775 0.11071616 0.07530585
000380 ff ed cc be 61 d3 b5 3e ad b4 69 be 96 fd af 3e
       -0.40025327 0.35512832 -0.22822829 0.34373158
000390 b1 09 2e 3f 30 46 95 3e 1e d0 e1 3e dd f3 ca bd
       0.6798354 0.2915511 0.44104093 -0.099097945
0003a0 d2 47 31 be e4 6a 7e be 8a 42 cc bd ad f0 0e bf
       -0.17312554 -0.24845463 -0.09973629 -0.5583599
0003b0 c3 dd 78 3f 00 42 36 3f e6 38 7b 3e 3b 41 d0 be
       0.9721338 0.7119446 0.24533424 -0.40674767
0003c0 85 51 79 3e c1 5d 44 be da 6e 1a 3e ac d6 fe be
       0.24347503 -0.1917639 0.15081349 -0.49773157
0003d0 53 fe e7 3e d3 5d 3d be c1 8a 27 be 36 b2 46 3b
       0.4531122 -0.18492822 -0.16361524 0.0030318624
0003e0 e8 67 66 be 4a 2f 01 3e bd 35 23 3e 02 e6 c7 3d
       -0.22500575 0.12615696 0.15938468 0.097606674
0003f0 fa 51 5e 3e 31 a5 8e be 3f 18 1f be c8 95 44 3e
       0.21710959 -0.27860406 -0.15536593 0.19197762

bias f4 [32]
000000 7a 0c a4 3e 86 1d 42 3e 28 50 89 3e 64 d1 fc 3e
       0.3204077 0.18956575 0.26818967 0.49378502
000010 a8 bf 8c be 6e 5e b3 3e a2 ad 96 3e d0 4e 86 3e
       -0.27489972 0.35032982 0.29429346 0.26232004
000020 4d 78 05 3d a0 60 ab 3e 55 38 6d 3e 22 d4 05 bc
       0.03258543 0.33472157 0.2316602 -0.008168252
000030 1b 19 0d be 8b a8 b8 3e 0c 2a 87 bd b6 1a c8 3e
       -0.13779108 0.36066088 -0.06599817 0.3908288
000040 9b f9 7a 3e 55 36 74 3e a9 c9 4f bd 72 05 a1 3e
       0.2450928 0.23848851 -0.050729427 0.31449467
000050 20 24 af 3e 92 f1 a8 be aa fa bd 3e 3f ca e6 3e
       0.3420725 -0.32996804 0.37105304 0.45076177
000060 6d 3f bc be 0f 4c 54 3e 98 9d 61 3e 60 64 97 3e
       -0.3676714 0.20732139 0.22032773 0.29568768
000070 6a 50 0d 3e 7d b5 df 3e 90 8a 82 3e fb 64 af be
       0.13800207 0.43693152 0.2549634 -0.3425673

weight f4 [4, 32]
000000 cb be 50 be 48 c8 77 be b7 04 a6 be 1d 6f 03 be
       -0.20385282 -0.24197495 -0.32425472 -0.12835355
000010 30 2e 9b 3d be ca a7 bd 90 3b 22 be 46 5a a1 3e
       0.07577169 -0.08192967 -0.15843034 0.31514186
000020 db 2d e8 bd af c2 ec bd a8 ae 5a be be 8a fd bd
       -0.11336871 -0.115605704 -0.21355689 -0.123799786
000030 96 e8 8d 3d 59 88 9f be 09 22 e9 bc 88 47 d9 be
       0.06929128 -0.31158713 -0.028458612 -0.42437387
000040 b6 1b ba be a3 bd 72 3e a2 14 ea b9 57 bd d3 3d
       -0.36349267 0.23705153 -0.0004464733 0.10338848
000050 3b 73 9b bd 4a a9 19 3e bb a7 3f be 63 2e 38 be
       -0.07590338 0.15005985 -0.18716328 -0.17986445
000060 ad 44 06 bd d4 c0 82 be cb 71 a1 be 0e 6d 43 3c
       -0.032780338 -0.2553774 -0.3153213 0.011927856
000070 e4 06 c7 3c 9d c5 07 be 61 13 b4 be 0c f2 12 be
       0.024295278 -0.13258977 -0.35171035 -0.14350146
000080 64 2d aa be a1 de c1 bd 14 45 85 3e 9a 5f 98 3e
       -0.33237755 -0.09466291 0.26029265 0.29760438
000090 27 97 52 3d ec 0b 41 be e3 58 21 3f af 59 2a 3f
       0.05141368 -0.18852204 0.63026255 0.66543096
0000a0 f8 25 4c 3b b6 85 e4 3e f3 d1 dd 3e 4c ab 19 bf
       0.003115056 0.44633263 0.4332424 -0.60027003
0000b0 28 be 09 be 98 59 27 be 84 fd fd bc 02 61 08 bd
       -0.13451445 -0.16342771 -0.031004675 -0.03329564
0000c0 7c ea 3c 3f 38 f0 a8 3d 2d d0 9d be 06 aa 44 3e
       0.73795295 0.08248943 -0.30822888 0.19205484
0000d0 af a0 d4 be 01 f5 61 3d 6a c8 23 3c 96 c3 8b bd
       -0.41528842 0.055165295 0.009996513 -0.068244144
0000e0 47 b9 17 bd d7 34 08 3f 93 73 53 be 19 0b 14 3d
       -0.03704193 0.5320563 -0.20649557 0.036143396
0000f0 17 08 b6 be 83 ff 09 bf e1 1d 86 be 18 bb 0c bd
       -0.35553047 -0.53905505 -0.2619467 -0.034358114
000100 ec 96 82 3e 96 b0 33 3f 78 f9 0d 3f 6c 45 e0 3e
       0.2550577 0.70191324 0.55458784 0.43802965
000110 fe 73 cc 3d c4 8e 8d be d2 18 91 be 10 72 38 bf
       0.09983061 -0.27647984 -0.2833925 -0.72049046
000120 d5 e0 2d bd 73 a6 10 bf ce db 09 3e 39 d5 e8 3e
       -0.042450745 -0.5650398 0.13462755 0.45475176
000130 2a 93 36 3e e1 03 ff 3e f9 8b 45 3e 8a 26 f8 3e
       0.17829576 0.49807647 0.19291677 0.48466903
000140 99 bd 9d be 7e 0e 26 bf 29 9a 0a bb d7 ee 18 bf
       -0.30808714 -0.64865863 -0.0021149016 -0.5973944
000150 cc 38 aa 3e 2b 57 dc 3d d1 6f 2c 3d d0 3b bc 3e
       0.33246458 0.107588135 0.042098824 0.36764383
000160 b5 9e d2 bd 65 08 b4 be 36 15 92 3d df 94 10 bf
       -0.10284177 -0.35162655 0.07132952 -0.5647716
000170 49 4d b6 be a0 b9 b0 3e ee 58 99 3e 29 fd cb 3d
       -0.3560584 0.3451662 0.2995066 0.09960396
000180 77 0d 0f 3d 67 d3 5a bd 4f 1c bc be 88 84 dc be
       0.03492495 -0.053424265 -0.36740348 -0.43069863
000190 ce f0 12 3a 7b 1c 1f 3f 98 d9 a0 be 77 9b 2d 3d
       0.00056053407 0.6215283 -0.3141601 0.04238459
0001a0 02 37 54 3e 9c a2 3b 3e b2 fd 2d bf c9 d0 95 3e
       0.20724109 0.1832375 -0.67965233 0.29260853
0001b0 a2 34 59 bc ff ef 06 3e 32 9e 96 3d 98 a0 3f 3d
       -0.013257178 0.13177489 0.07354392 0.046784014
0001c0 c4 5d 85 bc f3 92 29 3f 60 fb 09 3f 16 6a 0a 3f
       -0.016280062 0.6623985 0.5389919 0.54068124
0001d0 37 a6 c6 3e e0 16 1e 3d e0 f4 ce 3d b3 b7 88 be
       0.38798687 0.038596034 0.101053 -0.2670265
0001e0 90 d0 be bd 16 b4 b4 3c 5f 0f 5b 3e ef b4 fa 3e
       -0.09317124 0.022058528 0.21392582 0.48966166
0001f0 9e be e3 3e b3 09 93 3e 88 82 90 bc f4 1b aa 3d
       0.44481367 0.28718337 -0.017640367 0.08306113

bias f4 [4]
000000 36 df 97 be e2 34 08 be 81 27 df 3b e8 1f 20 be
       -0.29662484 -0.13301423 0.006810129 -0.15637171
