reinforce-baseline/models/LunarLander-v2-25000-model.pt (torch, 3087 bytes, 4 tensors)

weight f4 [10, 8]
0	0x403ba9d6	2.932241
1	0x3f67d198	0.9055419
2	0x3faaff2a	1.335912
3	0x3d232961	0.039834384
4	0xbffc6615	-1.9718653
5	0xbdfbaf04	-0.12289241
6	0x3dfb2300	0.12262535
7	0xbf409ac2	-0.7523614
8	0xbea19932	-0.3156219
9	0xbfce7c46	-1.6131675
10	0x3f34649b	0.7046601
11	0xbf50e12a	-0.81593573
12	0x3e96f13e	0.29480928
13	0xbfe99d9f	-1.8251227
14	0xbfde35a1	-1.7360116
15	0x3ff684fd	1.9259335
16	0x401f24ff	2.486633
17	0x3f91a3df	1.1378134
18	0x3fc4b636	1.5368106
19	0x3fb713ca	1.4302914
20	0xbfd109c3	-1.6331104
21	0xbe10378d	-0.14083691
22	0xbca1110c	-0.019661449
23	0xbeb61c9b	-0.355687
24	0x40363912	2.8472333
25	0x3e6782b6	0.22608456
26	0x3f98d76c	1.1940742
27	0xbfbb6164	-1.4639096
28	0xc036cb2a	-2.8561502
29	0xbe1758ae	-0.14779922
30	0xbec35b91	-0.38155797
31	0xbdd5d206	-0.104404494
32	0xbf926f6c	-1.1440253
33	0xbf53c4c3	-0.8272211
34	0xbf3d5774	-0.7396157
35	0xc01f660c	-2.4906034
36	0x3e1b26a3	0.15151457
37	0x3f9c3355	1.2203165
38	0x3fb82fe4	1.4389615
39	0xbeac8940	-0.33698463
40	0xbe55074d	-0.20803566
41	0xbf09eeb6	-0.5387987
42	0x3f25da0d	0.64785844
43	0x4090cdd9	4.525128
44	0xbfe4d42b	-1.7877249
45	0x3e47b48b	0.19502465
46	0x3e8bf53c	0.27335536
47	0x3f800691	1.0002004
48	0xc0113c4b	-2.269305
49	0xbf051217	-0.5198073
50	0xbfe26bf4	-1.7689195
51	0xbf9a50b0	-1.2055874
52	0x4006d481	2.1067202
53	0x4041809c	3.0234747
54	0xbea59e63	-0.32347402
55	0x3e206a76	0.15665612
56	0xbf6c367e	-0.9227065
57	0x3f75a3d0	0.95953083
58	0xbf10eb34	-0.5660889
59	0x3fe63d7e	1.7987516
60	0x404041ae	3.0040088
61	0xbe846c3a	-0.2586382
62	0xbf27e5f3	-0.6558525
63	0x3ed0932c	0.40737283
64	0x4010fd5c	2.2654638
65	0xbd123ce8	-0.035702616
66	0x3f47f4ec	0.78108096
67	0xbff505ee	-1.9142435
68	0xc0502ed0	-3.2528572
69	0xbf44437c	-0.76665473
70	0x3dfc6d0d	0.12325487
71	0xbe1c61f3	-0.1527174
72	0xc001e122	-2.029366
73	0xbe6caeac	-0.23113507
74	0xbfcce82b	-1.6008352
75	0xbf3f863d	-0.74814206
76	0x3fe7dd90	1.811449
77	0x40186f1b	2.3817813
78	0xbe03f80a	-0.12887588
79	0x3e079969	0.13242115

bias f4 [10]
0	0x3e7c59d0	0.24643636
1	0xbe18979a	-0.14901581
2	0x3f29b47d	0.6629103
3	0x3db369f8	0.08760446
4	0xbe863c7e	-0.26218027
5	0x3f03d942	0.51503384
6	0x3de39552	0.11112465
7	0x3f378a5a	0.7169548
8	0x3efe13de	0.49624532
9	0xbd3fcfd4	-0.04682906

weight f4 [4, 10]
0	0x3ed61183	0.41810235
1	0xbca12da8	-0.01967509
2	0x3e9489c4	0.29011357
3	0x3de434ad	0.111428596
4	0xbf996541	-1.1984025
5	0xc01d08a5	-2.4536526
6	0xbf140f12	-0.57835495
7	0x3dd66668	0.10468751
8	0xbdf22310	-0.11823094
9	0xbd112751	-0.035437886
10	0x3f4547db	0.7706277
11	0xbfe0147a	-1.7506249
12	0x401edf56	2.4823813
13	0x3f41ca99	0.75699764
14	0xc0037457	-2.0539758
15	0x3fa20132	1.2656615
16	0xc0451517	-3.0794122
17	0x3eadbffe	0.3393554
18	0x3f7400a5	0.95313483
19	0xc014b266	-2.3233886
20	0x3f1fb488	0.62384844
21	0x40077446	2.1164718
22	0xbf1c8ed2	-0.61155427
23	0x3f87e779	1.0617515
24	0x400b7026	2.17872
25	0xc011bd93	-2.2771957
26	0x3f6dfffa	0.92968714
27	0xc0283840	-2.6284332
28	0x3fd41d98	1.6571531
29	0x3f0d0afd	0.5509489
30	0xc02837ed	-2.6284134
31	0xbf83b317	-1.0289029
32	0xc01d5924	-2.4585657
33	0xc0135157	-2.3018396
34	0xbe81ed7c	-0.253765
35	0x3f8cfff2	1.1015608
36	0x3fac7639	1.3473579
37	0x40195557	2.3958337
38	0xc054a8cd	-3.3228028
39	0x3f595a27	0.84903187

bias f4 [4]
0	0xbe4d5611	-0.20052363
1	0x3d97774a	0.073957995
2	0x3e13f1ee	0.14447758
3	0x3e04f7f3	0.1298521
