reinforce-baseline/models/LunarLander-v2-35000-model.pt (torch, 3087 bytes, 4 tensors)

weight f4 [10, 8]
000000 da 26 42 40 c7 53 7b 3f 23 3f ce 3f 72 d5 b5 3e
       3.0336213 0.9817471 1.6113018 0.35514408
000010 42 88 04 c0 55 ea 29 3f 1b 7c d3 3e 3c 95 b9 be
       -2.0708165 0.6637319 0.41305622 -0.3624667
000020 04 9a c8 3d e9 fb 12 c0 3d 14 51 3f 5e 74 9b bf
       0.09795001 -2.2966254 0.81671506 -1.2144887
000030 cc 82 90 3e 42 43 2b c0 0d d8 ff bf 02 12 da 3f
       0.2822479 -2.67598 -1.9987808 1.7036746
000040 4b 2b 19 40 6d 35 ec 3f 75 20 c2 3f 9c 28 ac 3f
       2.3932674 1.8453804 1.5166155 1.3449893
000050 cb 17 da bf 4f 3e 84 be 9a cb ae bd 56 e8 9e be
       -1.7038511 -0.25828788 -0.08534928 -0.31036633
000060 b5 16 47 40 ef d2 66 3e ac 2f 87 3f 06 9e a7 bf
       3.110761 0.22541402 1.0561423 -1.30951
000070 d6 78 38 c0 75 66 76 bf 71 ed 38 be c4 eb 4c 3e
       -2.8823752 -0.9625009 -0.18059327 0.20011812
000080 b5 3c f2 be f3 d1 aa bf 47 33 b7 be 0d 38 1b c0
       -0.4731194 -1.3345321 -0.3578131 -2.425296
000090 2e 2d 91 3e 6f 00 e9 3f b6 50 dc 3f 9f 65 b3 be
       0.28354782 1.8203257 1.7212131 -0.35038468
0000a0 b1 f4 7c 3e 30 b2 77 bf 33 4c 36 3f b5 07 9f 40
       0.24702717 -0.9675627 0.7121002 4.969691
0000b0 d1 f7 26 c0 71 c7 57 3e 66 c6 83 3e 4b f1 91 3f
       -2.6088755 0.21072175 0.25737303 1.1401762
0000c0 b4 4c 1a c0 26 3c 8b bf f5 fc 0b c0 b9 57 80 bf
       -2.4109316 -1.0877731 -2.1873143 -1.0026771
0000d0 75 12 d6 3f 08 f1 50 40 35 4d 5b be 58 a3 96 3e
       1.6724383 3.2647114 -0.21416171 0.29421496
0000e0 ba 9d bd bf 90 3e 94 3f 53 2e 58 be d4 65 cf 3f
       -1.4813759 1.1581593 -0.21111421 1.620295
0000f0 87 d0 38 40 45 09 07 bf 9c e9 43 bf 9b 20 86 3e
       2.8877275 -0.5274852 -0.76528335 0.2619675
000100 c5 4d 1e 40 ed 0d b9 be 67 38 28 3e b2 97 cf bf
       2.4734967 -0.36143437 0.16427766 -1.6218169
000110 9d 92 69 c0 d4 e0 ed bf 4b d6 ac 3d e0 f5 a2 bd
       -3.6495736 -1.8584237 0.08439311 -0.07957053
000120 d0 63 f7 bf 1a 22 40 bf 45 f4 f6 bf e3 ed 27 bf
       -1.9327335 -0.75052035 -1.9293295 -0.6559736
000130 74 3e c3 3f 08 bc 32 40 7e 48 a5 3c d7 d9 93 3e
       1.5253434 2.7927265 0.020176169 0.28877136

bias f4 [10]
000000 69 ab 8d 39 f3 86 64 3e 3c ad 32 3f e5 f1 bf bd
       0.00027021326 0.22317104 0.69795585 -0.093723096
000010 0f 38 81 be a6 5b 46 3f ff f6 a3 3d 87 c5 47 3f
       -0.25238082 0.77483594 0.08006095 0.7803578
000020 14 a3 3a 3d 93 86 25 bb
       0.04556568 -0.0025257214

weight f4 [4, 10]
000000 5a f5 05 be 88 73 b0 bf 19 c6 b9 be 91 d1 b4 be
       -0.13081875 -1.3785257 -0.3628395 -0.35316136
000010 f2 f9 de bf 94 33 30 c0 70 06 6f bf b8 d4 21 bf
       -1.7420027 -2.753148 -0.933692 -0.6321521
000020 87 94 08 bf ab 61 c6 be 24 89 71 3f 5c 4d 16 c0
       -0.53351635 -0.3874639 0.94349885 -2.3484716
000030 b4 2e 3b 40 df 15 7e 3f f5 32 17 c0 bd 75 dc 3f
       2.9247255 0.9925212 -2.3624852 1.7223431
000040 d2 b9 50 c0 ca 52 68 3f 90 d8 99 3f 80 07 20 c0
       -3.2613416 0.90751326 1.2019215 -2.5004578
000050 c3 75 69 3f d2 e3 4f 40 e3 29 ff be fe 42 53 3f
       0.91195315 3.24828 -0.49836645 0.82524097
000060 f5 75 27 40 65 a4 44 c0 a3 31 b6 3f 9a 6a 28 c0
       2.6165745 -3.0725338 1.4233898 -2.6315064
000070 c4 27 bd 3f 8a 6b 92 3f 70 71 65 c0 85 97 d5 bf
       1.477776 1.1439068 -3.5850487 -1.6686865
000080 f3 b3 39 c0 33 e1 0f c0 f9 0c 9a be 75 6f 99 3f
       -2.9016082 -2.24812 -0.30088022 1.1987139
000090 fa 8c 8c 3f c2 25 0f 40 79 e9 58 c0 aa 06 e3 3e
       1.0980523 2.2366796 -3.38925 0.44341022

bias f4 [4]
000000 51 26 53 bf ce 3d d8 3e c5 5c 52 bc f4 04 39 3e
       -0.8248034 0.42234653 -0.012839501 0.18068296
