reinforce-baseline/models/LunarLander-v2-1000-model.pt (torch, 2831 bytes, 4 tensors)

weight f4 [5, 8]
00000000: 37a5 85be fcbb 8d3e 8403 cbbe 1746 ffbd
00000010: 13f1 f63e c29a 9ebc f393 a9be 86fa d6bc
00000020: 23a1 df3e f4ae 6e3e a8ab fb3e 12b0 f8bc
00000030: fee0 d2be 7be5 05be eaf7 be3e 42c6 65be
00000040: 1c05 d63d e058 82be f571 2d3a 0827 ecbd
00000050: ff84 98bc fe9c 1a3e cddd 9fbe 5c27 4e3b
00000060: 93fd bf3d ce6c 04bc f4ce 0b3f 0165 5ebe
00000070: 9011 a4be 0315 6fbe 9c1f bcbd eca7 d03d
00000080: e08a 983e 7668 db3d 9e32 38be 4639 b9be
00000090: 1562 da3e 317d d93e 830e a2bd 2d02 af3e
-0.2610261 0.27682483 -0.3965112 -0.124645405 0.482308 -0.019360904 -0.3312069 -0.026242506
0.43677625 0.23308927 0.491544 -0.030357394 -0.4118728 -0.13075821 0.37298518 -0.2243891
0.10450193 -0.2545843 0.0006616407 -0.11530882 -0.018618105 0.1509895 -0.31223908 0.0031456565
0.09374537 -0.008082582 0.5461266 -0.21718217 -0.3204465 -0.23347859 -0.091857165 0.101882786
0.29793453 0.10713284 -0.17988059 -0.3617651 0.42652956 0.42478326 -0.07912924 0.34181347

bias f4 [5]
00000000: d61f d5bc bb22 703e 84cf 9c3e 2478 dc3e
00000010: d9f5 ab3d
-0.026016157 0.23450749 0.30627072 0.4306041 0.08396501

weight f4 [4, 5]
00000000: d7b7 cabe 218f b33d 3cb4 053e bd35 813d
00000010: af06 18bf 2198 11bf 1102 e13e 9373 a7be
00000020: ad78 c63e d95b 83be 1a2a 353d 454d 8b3d
00000030: b070 de3d 5d84 643e 0a24 153e 4b13 533e
00000040: 4fde c2bd f8bc 87be c377 81be 388b fd3e
-0.39593384 0.08767534 0.13057035 0.06309078 -0.593852 -0.56872755 0.4394689 -0.32705364
0.38763943 -0.25656012 0.044229604 0.06801847 0.10861337 0.22316118 0.14564529 0.20612828
-0.09515058 -0.2651136 -0.25286683 0.49520278

bias f4 [4]
00000000: 46ca d7bd d151 9bbe a72d 9e3e 105f 38be
-0.105366275 -0.30335858 0.30894205 -0.18005013
