reinforce-baseline/models/LunarLander-v2-10000-model.pt (torch, 3087 bytes, 4 tensors)

weight f4 [10, 8]
0	0xbdc3d10e	-0.095613584
1	0xbf3ec4f5	-0.7451928
2	0xbea06160	-0.3132429
3	0xbf99c781	-1.2014009
4	0x3ffdd314	1.9830041
5	0x3fa24b39	1.2679206
6	0xbe4aa5fa	-0.19789878
7	0xbea2b3ba	-0.31777745
8	0xbddb0ba6	-0.10695581
9	0xbf5d5ae8	-0.86466837
10	0xbdc71568	-0.0972088
11	0x400445a7	2.0667512
12	0xbe2afc28	-0.16697752
13	0x3d717ddc	0.05895792
14	0x3f540a1e	0.8282794
15	0x3f9d554a	1.2291653
16	0xbe55e5e0	-0.20888472
17	0xbe4e4f65	-0.20147474
18	0xbeb5e790	-0.3552823
19	0xbf0ef9e1	-0.55850035
20	0x3fb54fc6	1.416497
21	0x3fa1b53d	1.2633435
22	0x3ea86f6b	0.32897505
23	0x3f12c796	0.57335794
24	0xbe821e77	-0.25413868
25	0x3dd628a9	0.10456974
26	0xbf1fba86	-0.6239399
27	0xbc477356	-0.012173494
28	0x3ffdbde5	1.9823576
29	0x3f1a991a	0.60389864
30	0xbe6bfc6e	-0.23045513
31	0x3e811108	0.25208306
32	0x3e153f73	0.14574985
33	0xbea7bc8e	-0.32761043
34	0x3e8ac3ff	0.27102658
35	0xbfa1e02d	-1.2646538
36	0xbf872541	-1.0558244
37	0xbeaff868	-0.34369206
38	0x3e9c9d7d	0.30588904
39	0xbed909a9	-0.42390183
40	0xbe56c2f5	-0.20972808
41	0xbee05fb6	-0.43823022
42	0xbb7a1b29	-0.0038163161
43	0xbf41874c	-0.7559707
44	0xbee68eeb	-0.45030913
45	0xbfc04e42	-1.5023882
46	0x3ea3c811	0.31988576
47	0x3f3b81a1	0.73244673
48	0x3dba0934	0.090837866
49	0x3f1721b3	0.59035796
50	0xbf3dc8e2	-0.7413465
51	0x3e752d96	0.23943171
52	0x3fb6e4e3	1.4288601
53	0x3ed905d9	0.42387274
54	0xbf80a240	-1.0049515
55	0xbf0b50eb	-0.54420346
56	0x3f027f82	0.5097581
57	0x3dc9a49e	0.09845851
58	0x3f71bccd	0.9442871
59	0xbf1bb025	-0.6081565
60	0xbfeafe70	-1.8358898
61	0xbfc083d0	-1.5040226
62	0xbe574379	-0.21021833
63	0xbec29c47	-0.38009855
64	0x3dd81f41	0.10552836
65	0xbf54ccdc	-0.8312509
66	0xbe0ca5a5	-0.13735063
67	0x401d011c	2.4531927
68	0x3c5b581b	0.013387705
69	0x3e08fcb7	0.13377653
70	0x3e891cae	0.26779693
71	0x3f0ca96e	0.5494603
72	0xbde6dc62	-0.112725034
73	0xbf3a68b9	-0.72816044
74	0x3d0c2364	0.03421344
75	0xbfca4da8	-1.5804949
76	0x3ec87792	0.39153725
77	0x3d4d7b9b	0.050166707
78	0x3e6f0af1	0.23344018
79	0x3dc4306b	0.095795475

bias f4 [10]
0	0x3ef1f13b	0.47254357
1	0x3f13f05b	0.5778863
2	0x3e0c637d	0.13709827
3	0x3e30b9cb	0.17258374
4	0x3e85fe89	0.26170757
5	0xbd03f23c	-0.032213435
6	0x3e8743ce	0.26418918
7	0x3f1eb14d	0.6198929
8	0x3f0d64e4	0.5523207
9	0x3e84fbda	0.25973397

weight f4 [4, 10]
0	0xbf2547bd	-0.6456259
1	0x3f87a2f1	1.0596601
2	0x3e0eded5	0.13952191
3	0x3cbcf565	0.023066232
4	0xbefb703c	-0.49109066
5	0xbe4971f1	-0.19672371
6	0x3ea6de6b	0.32591566
7	0xbf3e1525	-0.74251014
8	0x3f90bf44	1.130837
9	0xbefef660	-0.49797344
10	0xbfabb7e0	-1.3415489
11	0xbefa8c17	-0.48935005
12	0xbfc03898	-1.5017271
13	0xbf70bc36	-0.9403719
14	0x3f06fad6	0.52726495
15	0xbf153a4d	-0.58292085
16	0xbed171c6	-0.40907115
17	0x3f91a5b8	1.1378698
18	0xbc1506b5	-0.009095837
19	0xbeb7a6e6	-0.3586952
20	0x3f9b45bc	1.2130656
21	0xbf0344ec	-0.5127704
22	0x3f03886f	0.51380056
23	0xbe76816e	-0.24072811
24	0x3f1fb50f	0.6238565
25	0x3f922e96	1.1420467
26	0xbf7bc190	-0.9834223
27	0x3e432512	0.1905711
28	0xbf97d0f5	-1.1860644
29	0x3f856b1e	1.0423315
30	0x3f1d7771	0.6151038
31	0xbf02187a	-0.508186
32	0x3e9a5ddf	0.30149743
33	0x3f833959	1.0251876
34	0xbf14fa51	-0.5819445
35	0xbfb025d2	-1.3761542
36	0x3f9b704f	1.2143649
37	0xbf83ac11	-1.0286885
38	0xbe8d6b69	-0.2762101
39	0xbe27333f	-0.16328143

bias f4 [4]
0	0x3e7c5399	0.24641265
1	0x3e8a55a5	0.27018467
2	0xbebcb59a	-0.368573
3	0xbeb6f011	-0.3573003
