reinforce-baseline/models/LunarLander-v2-20000-first-model.pt (torch, 3087 bytes, 4 tensors)

weight f4 [10, 8]
0.1633867 -0.7648821 -0.18652691 -0.9746575 -0.56947386 -1.0681828 -0.38880748 0.5389782
-0.4382273 -0.5162698 -0.7380937 -1.2371019 1.9967355 1.8872412 0.26242685 -0.2976525
0.7592294 0.4242437 0.5495074 -1.0558579 -3.2751071 0.12273766 0.40043354 0.4697152
-0.18044814 0.7364237 -0.53391033 0.27816123 1.3058121 0.42938596 -1.0265145 -0.6977023
-0.8700306 -0.18083379 -0.60232735 2.3671005 1.6505642 -0.39970988 0.4775838 0.3886283
-0.2012355 -0.82901216 -0.45195436 -1.4436566 1.5719317 -0.29734063 -0.16243169 0.39209652
-0.06445619 0.028887311 -0.07136866 0.37464774 0.2525369 0.24560262 -0.18011118 -0.12763575
-0.37299198 0.8138395 -0.300348 0.8380552 1.3409238 0.06958653 0.3330802 -0.27199665
-0.004074116 0.73940146 -0.33126396 -0.005002692 1.1844327 0.35907182 -0.97903323 -0.61938757
-0.10150413 -0.25191694 -0.19102803 3.8462982 -0.011919568 0.09955571 0.45307812 0.18774296
00000000: d84e 273e 50cf 43bf e900 3fbe 2783 79bf
00000010: 0ac9 11bf 37ba 88bf c611 c7be 7afa 093f
00000020: 545f e0be 422a 04bf b5f3 3cbf 5b59 9ebf
00000030: 0795 ff3f 1f91 f13f d05c 863e e965 98be
00000040: dc5c 423f 7836 d93e 84ac 0c3f 5a26 87bf
00000050: 5b9b 51c0 e25d fb3d a005 cd3e 837e f03e
00000060: 66c7 38be 4386 3c3f 59ae 08bf 266b 8e3e
00000070: da24 a73f 7ad8 db3e d464 83bf 9e9c 32bf
00000080: 53ba 5ebf 7e2c 39be 2032 1abf 937e 1740
00000090: b045 d33f c6a6 ccbe dd85 f43e 4afa c63e
000000a0: ae10 4ebe 243a 54bf 9066 e7be bdc9 b8bf
000000b0: 0f35 c93f 083d 98be 7e54 26be e0c0 c83e
000000c0: 9b01 84bd 15a5 ec3c bb29 92bd d4d1 bf3e
000000d0: 844c 813e 417f 7b3e 116f 38be f2b2 02be
000000e0: cef8 bebe c957 503f 37c7 99be c98a 563f
000000f0: 64a3 ab3f 6283 8e3d 7d89 aa3e 2543 8bbe
00000100: 2980 85bb 6a49 3d3f 6e9b a9be 9fed a3bb
00000110: 7e9b 973f 43d8 b73e eca1 7abf 2f90 1ebf
00000120: 66e1 cfbd 42fb 80be da9c 43be c029 7640
00000130: 4b4a 43bc dde3 cb3d dbf9 e73e b13f 403e

bias f4 [10]
0.066889554 0.17163889 0.645384 0.21834219 -0.4258346 0.2464362 -0.3562039 0.4479632
0.15299878 0.42112124
00000000: 64fd 883d 1bc2 2f3e e337 253f 1895 5f3e
00000010: fe06 dabe c559 7c3e 5c60 b6be 6f5b e53e
00000020: b6ab 1c3e 349d d73e

weight f4 [4, 10]
-0.42454305 -0.7159668 -0.6352646 -0.16543978 -0.20804761 -0.9032696 0.21079944 -0.25804928
-0.059818678 -0.07910359 -0.45908767 -2.7508163 1.3789831 -0.2741445 -0.35325643 -1.57778
0.13082562 0.15000843 -0.21071756 1.2486131 1.4669204 1.5795548 0.45098263 -0.7242411
-1.5272796 1.4245036 -0.17110442 -0.997002 -0.73225135 -2.2421887 -1.4459225 0.3894801
-1.4204713 1.1526643 1.3696947 0.23376091 0.120664746 1.5072187 1.17586 1.0506551
00000000: b55d d9be 9a49 37bf b3a0 22bf 0c69 29be
00000010: 6f0a 55be ad3c 67bf cfdb 573e 091f 84be
00000020: 6e04 75bd 1001 a2bd 8a0d ebbe 600d 30c0
00000030: 8582 b03f ab5c 8cbe 07de b4be b2f4 c9bf
00000040: 27f7 053e cf9b 193e 58c6 57be 8ed2 9f3f
00000050: 0cc4 bb3f da2e ca3f 32e7 e63e dd67 39bf
00000060: e67d c3bf 2256 b63f ff35 2fbe 863b 7fbf
00000070: d374 3bbf 0580 0fc0 fd13 b9bf f069 c73e
00000080: 01d2 b5bf 818a 933f 2852 af3f 055f 6f3e
00000090: 141f f73d 8bec c03f 9582 963f de7b 863f

bias f4 [4]
-0.69680154 0.68639195 0.2182877 0.057598602
00000000: 9661 32bf 62b7 2f3f d086 5f3e 83ec 6b3d
