reinforce-baseline/models/LunarLander-v2-3000-model.pt (torch, 2831 bytes, 4 tensors)

weight f4 [5, 8]
00000000: 5115 41be eef5 783e 6f73 ddbe 1ef3 a4be
00000010: 15b5 833f 6475 a43e f250 d0be 734a 2ebd
00000020: 6867 a83e d68e ce3e 87ed f63e 9c0f 05be
00000030: 6499 83bf 8e3c e6be ee2c f03e 22cc c8bd
00000040: 0b90 ef3c c836 b9be 5922 b8bc 2219 dfbe
00000050: 0a5f 6e3c 966f 2d3e 2ba5 5dbe 632c 823d
00000060: 2846 41bd 168c c9bd 8661 043f fc36 1ebf
00000070: 4d3c 76bf df9c 0bbf f87f 7e3d 16ac 803e
00000080: cd14 913e 0448 df3d 77e0 79be 2147 0cbf
00000090: 629a 4f3f 28bd 253f 10c2 cabd 8dba 9e3e
-0.18855788 0.24312565 -0.4325213 -0.32216734 1.0289637 0.32120812 -0.40686756 -0.04255147
0.32891393 0.4034335 0.48228094 -0.12994236 -1.0281186 -0.44968075 0.4690928 -0.0980456
0.02924349 -0.36174607 -0.022477316 -0.43573862 0.014549026 0.16937098 -0.21645038 0.06356122
-0.047186047 -0.098411724 0.5171131 -0.6180265 -0.9618576 -0.5453624 0.06213376 0.2513129
0.28336182 0.10902408 -0.24402033 -0.54796034 0.81094944 0.64741755 -0.09900296 0.31001702

bias f4 [5]
00000000: d2c5 2f3e 5c0a bd3e 4942 f53e 8198 133f
00000010: d616 863e
0.17165306 0.36921966 0.47902134 0.5765458 0.26189297

weight f4 [4, 5]
00000000: 165f 04bf b03a 7abd 4db2 c4bd d76b 27be
00000010: cfff 43bf 0268 42bf 5630 383f 8713 0dbf
00000020: 15dc 0d3f de4d 0abf 0931 94bd 7b21 553d
00000030: f3d6 013f f793 f43e 94ee 7b3e 4372 093f
00000040: 6074 84be cb25 b0be 402c 11bf c393 383f
-0.5170759 -0.061091125 -0.09604321 -0.16349731 -0.7656221 -0.75939953 0.71948755 -0.5510792
0.55413944 -0.54025066 -0.07235915 0.052033883 0.5071861 0.47769138 0.24602729 0.53689975
-0.25870037 -0.34403834 -0.56708145 0.72100466

bias f4 [4]
00000000: d2b3 87be 691e 83be d7c9 bf3e 5d28 1fbe
-0.2650438 -0.2560914 0.3745868 -0.15542741
