reinforce-baseline/models/LunarLander-v2-30000-model.pt (torch, 3087 bytes, 4 tensors)

weight f4 [10, 8]
00000000: a041 2840 39cb 0d3f 575d 9b3f 275c f13e
00000010: 4569 14c0 a43e 12be 01ed 623e 1acd 02bf
00000020: 1069 3cbe cb75 00c0 fa32 743f f25e 93bf
00000030: b0ff 21bd 3d8a fdbf 901f f9bf 2ef1 cd3f
00000040: 68be 0440 a18d 863f 0cd3 913f 31db ef3f
00000050: e313 fcbf ffa3 dfbe 6ff5 a2bc 7304 64be
00000060: 1e74 2940 83b6 123d 17a8 563f 2420 9ebf
00000070: 306d 50c0 5288 28bf e5f7 96be ab45 f53b
00000080: c7fc 21bf e4c9 8ebf 1f4a cabe 26e9 26c0
00000090: b725 a63c 2638 aa3f 5de8 d33f 37bf 90be
000000a0: 87df 9e3e 9c87 85bf 7d72 293f 7f3e a240
000000b0: 7ec5 08c0 a2e4 303e 1af5 c33e 8114 aa3f
000000c0: 90c0 f5bf 3208 6cbe 6c8e 00c0 47cd dbbf
000000d0: a34c 1340 a422 3740 4870 e2bd e0ab a13e
000000e0: 2bfa 6cbf 63fa 9d3f fe41 87bd e7f8 c33f
000000f0: 572f 5340 97bd 2a3d 49dc 29bf 8d0f c23e
00000100: 027a f03f a43a 59be 315d dc3e c2a2 d1bf
00000110: 6061 79c0 b63b a9bf e260 c6bd 0dad 83be
00000120: 8aeb c3bf 4015 88bd b75e e3bf d9d2 9bbf
00000130: f889 0440 623f 1740 cdf8 0b3e 4ef8 833e
2.6290054 0.5538822 1.213786 0.4714062 -2.3189251 -0.14281708 0.22160722 -0.5109421
-0.18399453 -2.0071895 0.95390284 -1.151335 -0.039550483 -1.9807812 -1.9462757 1.6089227
2.0741215 1.0511972 1.1392531 1.8738767 -1.9693569 -0.43679807 -0.019892422 -0.22267322
2.6477122 0.035818588 0.83850235 -1.2353559 -3.2566643 -0.6583301 -0.29486004 0.0074851117
-0.6327633 -1.1155362 -0.39509675 -2.6079803 0.020281656 1.3298385 1.6555287 -0.28270885
0.31029913 -1.043201 0.6619032 5.070129 -2.137054 0.17274716 0.38272935 1.3287507
-1.919939 -0.23050001 -2.0086927 -1.7172021 2.3015525 2.8614893 -0.11056572 0.31576443
-0.92569226 1.2342037 -0.06604384 1.5310334 3.2997644 0.041684713 -0.66351753 0.3790249
1.8787234 -0.21213776 0.4303985 -1.6377795 -3.8965683 -1.3221347 -0.09686448 -0.25717965
-1.5306256 -0.06644678 -1.776328 -1.2173721 2.070921 2.3632436 0.13669129 0.2577538

bias f4 [10]
00000000: 60e1 1ebe a907 803e 0ce0 c23e 64a8 22be
00000010: 54f0 fabd 7dab 403f 586f 173f 8e40 713f
00000020: 5d8c 373e 7170 e63e
-0.15515661 0.25005844 0.3806156 -0.15884548 -0.1225287 0.7526167 0.5915427 0.9423913
0.17924638 0.4500766

weight f4 [4, 10]
00000000: b0a5 b43d 91d7 75bf 4d23 67be 0240 21bf
00000010: 5cce ffbf 7ac7 27c0 87e5 91bf 5b67 febe
00000020: 57ea 75bf bf1b 04bf bb3a 2a3f 3746 edbf
00000030: 6139 1d40 abd0 203f ec07 18c0 b16b d83f
00000040: fa57 63c0 9035 6b3e 7ad5 543f d724 30c0
00000050: 0e93 413f 206b 2940 5562 16bf 2a65 963f
00000060: b21f 0e40 9d8f 3bc0 2251 863f f8f0 26c0
00000070: ad06 e93f 0cdf 333f 9cbc 28c0 1bf6 acbf
00000080: 1a07 0cc0 d232 08c0 d076 d03d 3126 973f
00000090: 7ec1 d63f af57 3040 bd50 4fc0 5bb7 883f
0.08820665 -0.96032053 -0.2257206 -0.62988293 -1.9984851 -2.62155 -1.1398171 -0.4968823
-0.960607 -0.5160484 0.66495866 -1.8537053 2.4566271 0.628184 -2.3754835 1.6907865
-3.5522447 0.22969651 0.8313824 -2.7522485 0.7561501 2.6471634 -0.5874379 1.1749623
2.2206845 -2.9306405 1.049351 -2.6084576 1.8205162 0.7026222 -2.6365118 -1.3512605
-2.1879334 -2.1281018 0.10178912 1.180853 1.6777799 2.7553518 -3.2393029 1.0680956

bias f4 [4]
00000000: 4a33 79bf 2065 7d3c 14fd d43d e294 fd3e
-0.97343886 0.015466005 0.10399833 0.4952765
