reinforce-baseline/models/LunarLander-v2-20000-model.pt (torch, 3087 bytes, 4 tensors)

weight f4 [10, 8]
2.665554 0.7883172 1.6524234 0.08789956 -1.9419075 -0.12373113 0.3299602 -0.6109671
-0.0015641996 -1.3820679 0.5506273 -0.9281762 0.5376334 -1.6375732 -1.4245851 1.5436666
2.884098 1.1941781 1.8197372 1.2409248 -1.213482 0.17147486 -0.008859595 -0.2411931
2.427112 0.11822355 1.3881158 -1.4665363 -2.8634849 -0.2583169 -0.15165153 -0.064731844
-1.7011878 -1.0239091 -0.6705317 -2.5031366 0.08051522 0.5284177 1.2968022 -0.16900241
0.31074753 -1.1913437 -0.16276196 4.5227156 -1.2661889 0.576518 0.7588773 1.5224264
-2.6830409 -0.7295799 -2.1780593 -0.94338536 1.868199 2.4744158 -0.13007131 0.20874512
-0.76548266 1.0622301 -0.6794884 1.9309642 2.7025132 0.014861349 -0.19488424 0.7472332
1.9418045 -0.2237173 1.1295934 -1.8910711 -3.10306 -0.762085 0.16065098 -0.25773212
-2.33445 -0.4156417 -1.8352538 -0.3955607 1.634191 2.0737734 0.043875527 0.16505656
00000000: 7098 2a40 28cf 493f 9c82 d33f af04 b43d
00000010: 6d90 f8bf bf66 fdbd 8bf0 a83e 5768 1cbf
00000020: d405 cdba 9ae7 b0bf e9f5 0c3f f59c 6dbf
00000030: 58a2 093f 009c d1bf ce58 b6bf de96 c53f
00000040: 1095 3840 d4da 983f 26ed e83f a0d6 9e3f
00000050: 6153 9bbf 1b97 2f3e d627 11bc 53fb 76be
00000060: ce55 1b40 301f f23d c7ad b13f 76b7 bbbf
00000070: 5643 37c0 1d42 84be 8a4a 1bbe 2192 84bd
00000080: 86c0 d9bf 740f 83bf f7a7 2bbf 6433 20c0
00000090: 2ae5 a43d 6246 073f 9dfd a53f f80e 2dbe
000000a0: 4d1a 9f3e f37d 98bf 12ab 26be 16ba 9040
000000b0: 7a12 a2bf af96 133f c845 423f dede c23f
000000c0: f1b6 2bc0 c0c5 3abf 5365 0bc0 b481 71bf
000000d0: 2521 ef3f d45c 1e40 6a31 05be 48c1 553e
000000e0: acf6 43bf 28f7 873f f4f2 2dbf d629 f73f
000000f0: faf5 2c40 047d 733c bc8f 47be ad4a 3f3f
00000100: 0d8d f83f 2616 65be 8496 903f 9e0e f2bf
00000110: 8998 46c0 0118 43bf b181 243e 77f5 83be
00000120: a167 15c0 fdce d4be 99e9 eabf ef86 cabe
00000130: 2c2d d13f b4b8 0440 d3b6 333d 9604 293e

bias f4 [10]
0.3407701 -0.24325693 0.57441884 0.23523915 0.03647429 0.06723012 0.21299285 0.59605724
0.5502055 -0.04099315
00000000: 6b79 ae3e 5818 79be 1d0d 133f 88e2 703e
00000010: 1166 153d f2af 893d cc1a 5a3e 3597 183f
00000020: 45da 0c3f 6fe8 27bd

weight f4 [4, 10]
0.6120355 -0.33508304 0.55375993 0.2072947 -1.2101154 -2.2709582 -0.56144804 0.08336803
-0.05713832 -0.047472052 0.83653754 -1.2753549 2.4961388 0.7882441 -2.0642674 1.0785819
-2.9583123 0.28557476 0.9062759 -2.338486 0.624509 1.7677755 -0.78138226 1.0321039
2.240558 -2.0161958 0.96917725 -2.4729521 1.6420937 0.5396009 -2.6600451 -0.87798065
-2.5227194 -2.3680992 -0.31550393 1.1179632 1.250718 2.2226884 -3.1721594 0.84226
00000000: 5cae 1c3f 0190 abbe 36c3 0d3f 1045 543e
00000010: 10e5 9abf 6157 11c0 0fbb 0fbf dcbc aa3d
00000020: df09 6abd 0e72 42bd 5327 563f d43e a3bf
00000030: bdc0 1f40 5eca 493f f51c 04c0 f90e 8a3f
00000040: fd54 3dc0 db36 923e b301 683f c1a9 15c0
00000050: d2df 1f3f 7846 e23f ab08 48bf fb1b 843f
00000060: 4d65 0f40 5a09 01c0 001c 783f d944 1ec0
00000070: 2030 d23f 4923 0a3f 2e3e 2ac0 57c3 60bf
00000080: 3c74 21c0 f08e 17c0 bb89 a1be 6b19 8f3f
00000090: 8717 a03f 8740 0e40 a904 4bc0 5a9e 573f

bias f4 [4]
-0.16151376 -0.10625857 0.30258325 0.032251682
00000000: dd63 25be 189e d9bd 31ec 9a3e 571a 043d
