reinforce-baseline/models/LunarLander-v2-15000-model.pt (torch, 3087 bytes, 4 tensors)

weight f4 [10, 8]
00000000: 2c03 df3f a00d 333e d6f1 993f 8be6 e03e
00000010: 6118 11c0 9cbc 1abf 8116 cc3e 1435 1abf
00000020: 5a94 0a3f 87b5 6dbf 8156 023e 5df7 8fbf
00000030: 6c6b 563f d100 c5bf be60 afbf ca05 9b3f
00000040: fffc f53f 5009 023f 8ee0 c73f ea8d c83f
00000050: 3a95 dabf 3895 3d3e ffb7 9d3d 3737 59be
00000060: 1f6a ef3f a42e 16be 405e 813f 0ffe 7dbf
00000070: 5b74 41c0 38f9 59bf 2e7e 583a 0bcc 3ebc
00000080: 2707 79bf dd2f 44bf d904 7ebf 1e5f 1bc0
00000090: 0f0c b13e e8b4 12bf 13a1 7b3f dd87 3dbe
000000a0: c487 0f3f b138 ebbf 57e6 5ebd b746 4540
000000b0: 918c 90bf d6db cc3e 32da 3f3f 1344 c23f
000000c0: 9470 e8bf 94f7 49be fb27 e8bf de30 98bf
000000d0: 34ca 1440 bd4f 0740 2368 0cbe 3c49 883e
000000e0: 7d95 8fbf 82f1 793f 66bc ecbe e815 ec3f
000000f0: 781d 1b40 fe24 8e3f 8156 9c3c ec0e 533f
00000100: f51d e63f ba3a 1ebf 327a 533f 5a9e b1bf
00000110: 3fa4 49c0 5440 c8bf 9eb2 823e f5e3 59be
00000120: b498 cebf 50ad ae3d ff5b bcbf 370f 40bf
00000130: b848 fe3f abc6 e33f 1219 6f3d 2862 0d3e
1.7422843 0.17485666 1.2026927 0.4392589 -2.267113 -0.60444045 0.3986092 -0.6023724
0.54132617 -0.92855114 0.12728311 -1.1247364 0.8375766 -1.5390874 -1.3701398 1.2111142
1.9217833 0.5079546 1.5615404 1.5668309 -1.707679 0.18513954 0.0770111 -0.21212469
1.870426 -0.1466623 1.0106888 -0.9921579 -3.0227268 -0.851459 0.00082585483 -0.011645327
-0.9727654 -0.76635534 -0.99226147 -2.4276805 0.34579512 -0.5730729 0.98292655 -0.18508859
0.56066537 -1.8376676 -0.054418888 3.082441 -1.1292897 0.40011472 0.74942315 1.5177025
-1.8159356 -0.1972335 -1.8137201 -1.1889913 2.3248415 2.1142418 -0.137116 0.26618373
-1.1217495 0.97634137 -0.46237487 1.8444185 2.4236736 1.1105039 0.019084217 0.82444644
1.7977892 -0.6180836 0.8260833 -1.387645 -3.1506498 -1.5644631 0.255269 -0.21278365
-1.6140351 0.085291505 -1.4715575 -0.75023216 1.9865942 1.7795004 0.05837352 0.13806975

bias f4 [10]
00000000: b904 4d3d 633f fabc 38dd f53e 81a4 2cbd
00000010: 101b 05be 418a 273c 61e7 a03e 9183 453f
00000020: 319e f93d 82ea 4c3e
0.050053332 -0.030547803 0.4802034 -0.04214907 -0.12998605 0.010225833 0.31426528 0.7715388
0.12188376 0.20011333

weight f4 [4, 10]
00000000: b863 0d3f 4c5e d3be d5af 9d3e 7304 543e
00000010: a9e7 58bf 58b0 fabf aed5 b8be a3ca 82be
00000020: 34f6 63bc f64d 9f3d 997f 813f 5541 1ebf
00000030: 918a 0d40 e8df 7d3f d43a b8bf bed5 873f
00000040: cb91 22c0 9e39 ebbd 16d1 973f 21aa 07c0
00000050: d988 4dbd f2a8 e43f b7eb b0bf da14 273f
00000060: 8f7d f63f f2c6 d2bf 1afb 203f 2338 12c0
00000070: 6281 983f f68d 763e fc21 e4bf 7b13 9fbf
00000080: 4b70 ccbf db97 fabf 1aea 52be b741 6f3f
00000090: b936 b03f 6cfd 1b40 383b 36c0 0c76 803f
0.55230284 -0.4128288 0.30798212 0.20704822 -0.84728485 -1.9585066 -0.36100525 -0.25545225
-0.01391368 0.07778542 1.0117065 -0.6181844 2.2115824 0.9916978 -1.4392953 1.0612104
-2.5401485 -0.11485599 1.1860683 -2.1197588 -0.050179336 1.7864058 -1.3821934 0.6526619
1.9257067 -1.6466963 0.6288315 -2.2846763 1.1914485 0.24077591 -1.7822871 -1.242782
-1.5971769 -1.9577593 -0.20597115 0.9345965 1.37667 2.4373426 -2.8473644 1.0036025

bias f4 [4]
00000000: 0f03 d3bd 750f 2fbe 204b 223e 4c32 3d3e
-0.10303318 -0.1709574 0.1584897 0.18476218
