reinforce-baseline/models/LunarLander-v2-7000-model.pt (torch, 4303 bytes, 4 tensors)

weight f4 [32, 8]
000000 77 49 a1 be 7e 83 88 be bc 9f 33 be ab 1e d9 be
       -0.31501362 -0.2666282 -0.17541403 -0.4240621
000010 77 28 ad 3e 00 67 e0 3e ec 9d 17 3d 72 fc 8b be
       0.33819935 0.43828583 0.03701584 -0.27341038
000020 34 65 1c 3e e8 95 3c bd c5 5e b9 be 2f 9b 70 bf
       0.15272981 -0.0460414 -0.36205116 -0.9398679
000030 03 52 8a bc 93 91 9f 3e 4d 93 32 be 97 df 73 3b
       -0.01688481 0.31165752 -0.17439003 0.0037212127
000040 f6 86 b6 3e df f0 a8 bd 42 87 ce bc e5 e8 90 bf
       0.35649842 -0.082490675 -0.02521098 -1.1321074
000050 8d 04 6c bf 6a c5 ad be a0 fc 84 3e de a0 1e bd
       -0.92194444 -0.33939677 0.25973988 -0.038727634
000060 ad 23 59 3e 01 58 ef bd 3e 63 05 3f 43 bd 1a bf
       0.21205015 -0.11686707 0.52104557 -0.6044504
000070 e3 ad 6a bf f6 75 ed bd 77 da a2 3d 4a 41 ac be
       -0.9167158 -0.11594765 0.07951825 -0.33643562
000080 e6 94 49 3e b4 37 2e be bd a1 6e 3e e3 f6 64 3e
       0.19685706 -0.17013437 0.23303886 0.22359805
000090 22 22 3f be a1 06 07 bf 7a 42 da 3d 58 01 15 3e
       -0.18665364 -0.5274449 0.10657211 0.14551294
0000a0 6d 40 b1 bd 46 c8 65 3e fe 39 bc be f3 00 08 3f
       -0.08654866 0.2243968 -0.36762995 0.5312645
0000b0 b6 be 64 3f c4 29 a3 3e a0 3b a3 bd 48 cc a0 3e
       0.893535 0.31867802 -0.07970357 0.31405854
0000c0 34 3f 9f 3d 42 ca 9f 3e 65 b9 d6 3e 90 7a ae 3e
       0.07775727 0.31208998 0.4193832 0.34077883
0000d0 46 da aa bf 3b 7a 04 be 97 83 7a 3e 2f 59 38 3e
       -1.3347862 -0.12937252 0.2446426 0.18002771
0000e0 ad 93 e3 3e 8b c6 40 be db 15 31 3d 8d e8 90 3f
       0.44448605 -0.18825738 0.043233734 1.1320969
0000f0 d6 d2 c6 be 90 43 81 3d 89 5b 00 3e 0e 49 86 3e
       -0.3883273 0.06311715 0.12534918 0.2622761
000100 0f 8e a1 be 37 fc 00 bf 84 2b 67 be 21 55 84 bd
       -0.31553695 -0.5038485 -0.22575194 -0.064615496
000110 27 68 be 3e 99 c6 24 be c6 86 3e 3d 2e 76 ae 3e
       0.37188837 -0.16091384 0.04651525 0.3407454
000120 dc d8 42 3e 5b 64 2d be 90 a8 06 be e6 20 9e 3f
       0.19028038 -0.16932814 -0.13150239 1.235379
000130 d6 d0 d4 bd a6 c6 1c 3e b0 cc a4 3e 0a de 98 3e
       -0.10391395 0.15310153 0.32187414 0.29856902
000140 8d 64 9e 3e 23 5c fe 3d 98 dd ea 3e 9f bd e4 be
       0.3093609 0.124199174 0.45872188 -0.4467592
000150 d2 59 a6 bf e2 17 27 bf e7 80 e6 3d ef 50 5c bd
       -1.2996161 -0.6527082 0.11255055 -0.05378812
000160 6e 2c 6a be 4b bd 01 3e 18 9b 17 3e bb a6 2b bf
       -0.22868511 0.12669866 0.14805257 -0.67051286
000170 6b 9a 82 3f c7 45 41 3f 64 b1 a5 3e 5a ee 38 be
       1.0203375 0.75497097 0.323619 -0.18059674
000180 af a9 13 be 97 02 52 bd 8f fe 3b be bf 56 bd 3c
       -0.14420198 -0.051272 -0.18358825 0.023112653
000190 bc a8 ea bc 78 db 14 bf 79 77 8e 3d 82 71 1a bd
       -0.028644912 -0.5814738 0.06956381 -0.037705906
0001a0 0a 52 15 3b c9 66 0f bd 1a b6 00 bf 7d 40 5a bf
       0.0022784495 -0.035010133 -0.50277865 -0.8525465
0001b0 df af b0 3e 09 27 1b 3d a3 b8 be be 1a 6c af 3d
       0.3450918 0.037879024 -0.37250242 0.085655406
0001c0 7e cb 09 3b da 5e 51 be 0e ad 0e 3e 1c a5 cc be
       0.0021025832 -0.20446339 0.13933203 -0.39969718
0001d0 ec e7 86 3d 76 c2 0d bf aa 1e 76 3e 28 29 78 be
       0.06587204 -0.5537485 0.24035135 -0.2423445
0001e0 b7 38 d4 3a cb dd 86 be 4d db b4 3b 4a 60 10 bf
       0.0016191219 -0.2634109 0.0055193068 -0.56396925
0001f0 a3 31 a4 3d c5 cf ca 3d 30 4f 95 be 72 08 18 3e
       0.0801728 0.0990291 -0.29161978 0.14846972
000200 b0 a8 13 3f 58 b4 c7 3e 88 bc 19 3e 44 90 c8 3e
       0.5767927 0.3900478 0.15013325 0.39172566
000210 5d b1 4f bf e6 f9 4e 3c e4 f1 d8 3d 00 55 b4 3d
       -0.8113001 0.012632823 0.10593012 0.08805275
000220 ac b5 64 be 7a 29 1e bf 4d f6 0e be c7 a5 66 3f
       -0.22334927 -0.6178204 -0.13961144 0.90096706
000230 2f ca b3 3e b7 44 f8 bd 97 d9 3c 3e 42 c3 ff 3d
       0.3511519 -0.12122481 0.18442379 0.12488414
000240 5e 80 02 be 86 00 07 3f da de 9e bd d9 60 43 be
       -0.1274428 0.52735174 -0.07757349 -0.19079913
000250 3b 84 88 3f c7 69 2c 3f 3d 8c fd be 3b 0a de be
       1.0665354 0.67348903 -0.49521056 -0.4336718
000260 8a 13 00 be 19 55 e1 3e 11 0e 71 be 6e c2 72 3f
       -0.12507454 0.44010237 -0.23540522 0.94827926
000270 59 6c db 3e 26 a1 29 bd 50 76 d9 3e b6 4a 99 3e
       0.428561 -0.04141345 0.42473078 0.29939812
000280 3d 3d d3 be db 73 52 bd 4e 89 ef be 39 76 c9 be
       -0.4125766 -0.05138002 -0.46784443 -0.3934801
000290 05 6b 52 3f 7a a0 0c bd b3 4c 2d 3e d9 eb cc bd
       0.8219455 -0.03433273 0.1692379 -0.10005922
0002a0 b6 6d 2d 3e ac 8c 30 be 8a 39 94 bd ce 48 59 bc
       0.16936383 -0.17241162 -0.07237537 -0.013261987
0002b0 f1 8f 7f 3e db 6f 28 be 10 4b 44 be b0 8a 32 be
       0.24957253 -0.1644892 -0.19169259 -0.17435718
0002c0 af 59 bb bd 73 c2 c0 3e cf 05 9e 3e 39 e9 e2 bd
       -0.09147965 0.37648353 0.30863807 -0.1107964
0002d0 07 03 ea 3e 9c c1 20 3a 98 6c ac 3e e2 45 5b bd
       0.45705435 0.00061323657 0.336766 -0.053533442
0002e0 0c a3 ea 3e 08 6e d7 be ac 40 82 bd 93 12 55 bf
       0.4582752 -0.42076135 -0.063599914 -0.83231467
0002f0 6a cd b9 be 88 63 12 3e 45 bb 98 bd 3c 22 a6 3d
       -0.3628953 0.1429578 -0.07457594 0.081119984
000300 e9 85 ca bc 88 db a4 bd 52 bf a7 3e d4 1f 3e 3d
       -0.024722056 -0.08049685 0.32763153 0.046417072
000310 01 db d3 3d 6b 43 39 bd 47 d4 66 bd a6 b3 8a 3d
       0.10344506 -0.04523031 -0.056354787 0.067725465
000320 93 0c f8 3e b5 82 e0 3e 35 35 9f 3e b6 01 f2 3e
       0.48447093 0.43849722 0.3109528 0.4726693
000330 c6 20 3b bf 0b f2 ac bd 89 c8 c1 3c 96 04 7d 3e
       -0.73096883 -0.084446035 0.023655193 0.2470878
000340 ed c9 91 3d e7 ed 28 3e 4e dd cb be 40 0d 8b be
       0.071185924 0.16497003 -0.3981728 -0.27158546
000350 0d cc 31 3f bb 27 79 3e 0c 40 aa be a7 94 b9 be
       0.6945198 0.24331562 -0.3325199 -0.36246225
000360 02 fe b8 be 5b 9d 46 bf 76 af 14 bd 04 8c 83 3f
       -0.36131293 -0.77583855 -0.036300145 1.0277104
000370 fc 98 e0 3d ce 8d 8b bc 61 4b 0f 3e 04 3b 0b 3e
       0.109666795 -0.017035391 0.13993599 0.13596731
000380 42 dd e1 be 4a 84 d2 3e 11 c7 6d be 05 7b ac 3e
       -0.4411412 0.41116554 -0.23220469 0.33687606
000390 95 f1 55 3f 04 54 81 3e 7d bf e1 3e f8 eb 5e bd
       0.8357175 0.2525941 0.44091406 -0.054424256
0003a0 39 c9 62 be 46 af 7f be 75 31 f3 bd 68 b2 15 bf
       -0.22147073 -0.24969205 -0.118746676 -0.5847535
0003b0 e8 59 93 3f 11 20 4f 3f 9c fc 71 3e a3 e5 d8 be
       1.1511812 0.80908304 0.23631519 -0.423627
0003c0 ab 17 61 3e ec 1a 60 be a5 0c 06 3e a7 29 08 bf
       0.21981685 -0.2188527 0.13090761 -0.53188556
0003d0 5f 55 12 3f a7 c6 5b be dd 9b 58 be 7e 36 5b bb
       0.57161516 -0.21462499 -0.21153207 -0.0033449228
0003e0 55 d7 94 be bb 84 c1 3d 86 ee 27 3e 11 61 e6 bc
       -0.29070535 0.094491445 0.16399583 -0.028122457
0003f0 54 34 8c 3e 69 c7 e5 be c6 14 25 be c4 1d c6 3e
       0.27383673 -0.448787 -0.16121206 0.38694584

bias f4 [32]
000000 70 59 9f 3e 7d a8 4a 3e b4 71 91 3e 56 57 02 3f
       0.31122923 0.19790836 0.2840706 0.50914514
000010 31 04 7e be 63 ea ae 3e 3d 8c a4 3e c8 a8 92 3e
       -0.24806286 0.34163198 0.32138243 0.28644395
000020 f8 7d eb 3c e5 98 af 3e 9c 09 71 3e b0 4a ab 3b
       0.02874659 0.34296337 0.23538822 0.0052274093
000030 e7 bf 73 bd ad d8 ba 3e c2 4a 45 3b d2 d7 cd 3e
       -0.059509184 0.36493436 0.0030104374 0.4020372
000040 2e 8b 8c 3e 59 96 56 3e 21 2f ed bc 61 23 9e 3e
       0.27449936 0.2095579 -0.028953137 0.30886367
000050 01 9c a8 3e 86 93 a8 be 51 ff bd 3e 24 7c ec 3e
       0.32931522 -0.3292505 0.37108853 0.46188462
000060 73 3f bc be b7 a2 73 3e 9c cd 3e 3e 84 61 90 3e
       -0.36767158 0.2379254 0.18633121 0.281994
000070 9b c2 18 3e b3 91 d3 3e 59 4a 7d 3e c8 68 4f be
       0.14917986 0.41322097 0.24735393 -0.20254815

weight f4 [4, 32]
000000 25 1c 59 be d2 31 85 be 8d fe b0 be 62 21 13 be
       -0.21202143 -0.26014572 -0.34569207 -0.14368203
000010 8b 80 a7 3d eb 03 0a be 3a 3b 3d be d8 37 8a 3e
       0.081788145 -0.13478057 -0.18479624 0.2699573
000020 d7 19 1a be ab 80 22 be 0e 6e 6c be f4 a4 2f be
       -0.1504892 -0.15869395 -0.23088858 -0.17152768
000030 2f df cb 3d bb 7a a7 be 6a 49 17 bd 66 3d e8 be
       0.09954678 -0.32710823 -0.036935247 -0.45359343
000040 1b fa ce be 65 67 39 3e 7a d8 06 bd 9a d6 52 3d
       -0.4042519 0.18105848 -0.032921292 0.05147419
000050 5a e4 cf bd 2e a4 19 3e df aa 6d be 96 9b 50 be
       -0.101509765 0.15004036 -0.23209713 -0.20371851
000060 ad 44 06 bd a1 93 9c be 6f cd aa be 48 b7 23 bd
       -0.032780338 -0.30581382 -0.33359858 -0.039969712
000070 08 d1 c5 bc f6 dc 20 be 9b b2 cb be 4a 78 04 be
       -0.024147525 -0.1570929 -0.39784703 -0.12936512
000080 17 55 be be 28 08 d7 bd 0f 5c 9a 3e 02 f8 b2 3e
       -0.37174293 -0.104996026 0.3014836 0.3495484
000090 19 e2 1f 3d d2 da 5d be f7 c5 35 3f 44 a0 3f 3f
       0.039033983 -0.21665505 0.71005195 0.7485392
0000a0 97 c3 b9 bc b2 28 fe 3e fa 35 00 3f d0 e9 35 bf
       -0.022676272 0.49640423 0.5008236 -0.71059895
0000b0 02 88 77 be dd a1 3e be f0 77 81 bd 8f 95 fb bc
       -0.24172977 -0.18616433 -0.063217044 -0.030710964
0000c0 db 3a 53 3f 5b 39 c4 3d e4 8a be be 43 35 59 3e
       0.8251168 0.09581252 -0.3721534 0.21211724
0000d0 76 08 e9 be f4 b0 61 3d 33 ed a4 3c 2f ca 05 bd
       -0.45514268 0.055100396 0.020132637 -0.03266352
0000e0 55 b9 17 bd 45 5e 1e 3f d4 48 6c be b6 8b 68 3d
       -0.03704198 0.61862594 -0.23074657 0.056773864
0000f0 7d 43 ca be d9 2b 1d bf 33 e7 92 be 9e f7 6f be
       -0.39504614 -0.6139503 -0.28692016 -0.23434302
000100 d2 6d a2 3e d4 a8 3c 3f f3 e9 11 3f f7 2e e7 3e
       0.3172441 0.7369511 0.56997603 0.4515302
000110 9b d2 10 3e a2 52 98 be 47 31 a3 be 0f 1e 58 bf
       0.1414284 -0.29750544 -0.31873533 -0.84420866
000120 6d ee 4a bd 86 31 28 bf 53 59 0d 3e bd f5 00 3f
       -0.049543787 -0.65700567 0.13803606 0.50374967
000130 9e 85 bd 3e b9 74 06 3f f6 c8 a1 3e 6a 27 05 3f
       0.37016004 0.52521855 0.31598634 0.52013266
000140 a8 08 b3 be e1 6a 45 bf 49 0e 84 bc 3a 42 2b bf
       -0.34967542 -0.7711621 -0.016120093 -0.6689793
000150 9a d1 b3 3e 29 cd dc 3d b4 54 cb 3c 53 14 d0 3e
       0.3512085 0.10781319 0.024820663 0.40640506
000160 b0 9e d2 bd 77 5d d0 be 04 ef 8e 3d 6f 71 27 bf
       -0.102841735 -0.40696308 0.06979182 -0.6540746
000170 43 6b c4 be bb bd cd 3e e4 e9 b0 3e eb 21 bb 3e
       -0.38363084 0.40183815 0.34553444 0.36549315
000180 f6 0e e9 39 c0 66 9a bd 61 bb d7 be ce 24 fe be
       0.0004445237 -0.07539129 -0.42135146 -0.49637455
000190 92 74 41 bd 47 ba 2f 3f 5c 45 b5 be bd 3e 35 3d
       -0.04723031 0.6864361 -0.3540448 0.044249285
0001a0 c6 e3 81 3e d3 9b 50 3e 3f 1d 42 bf d3 55 ab 3e
       0.2536909 0.20371942 -0.75825876 0.33463916
0001b0 b5 16 ef bd 2b 1d 07 3e 2c d7 15 bd 49 d5 8c 3c
       -0.11674253 0.1319472 -0.036582157 0.017191546
0001c0 0f 4b 39 bd 05 ee 3a 3f 90 9a 1e 3f 9d f0 18 3f
       -0.045237597 0.7301944 0.61954594 0.59742147
0001d0 15 12 d6 3e c6 8f 1d 3d c6 56 07 3e f5 4b ab be
       0.4181067 0.03846719 0.13216695 -0.33456388
0001e0 90 d0 be bd e3 8c 2d 3c fc 2c 7d 3e ea 1e 0a 3f
       -0.09317124 0.010592672 0.24724191 0.5395342
0001f0 11 29 06 3f 41 84 94 3e 56 b5 fd bc 74 bc 07 3d
       0.5240641 0.29007152 -0.030970257 0.033138707

bias f4 [4]
000000 21 10 a6 be 89 7c e1 bd 8e 74 18 3c c0 85 29 be
       -0.3243418 -0.11010081 0.009305133 -0.16554928
