reinforce-baseline/models/LunarLander-v2-4000-model.pt (torch, 4303 bytes, 4 tensors)

weight f4 [32, 8]
00000000: 756d 70be f21f 7ebe a090 14be 46ec a4be
00000010: 3889 103e ddca 993e 2c9a e23d 066f 1ebe
00000020: a0d0 353e a7bb 183d c71b a8be 4f07 54bf
00000030: 707d 67bd 3771 5b3e f9d3 27be 1796 173d
00000040: 4b26 883e 86a3 80bb 74cd d0bc f5e5 83bf
00000050: 16fc 3cbf 7aeb cdbe 283a ac3e f8ee 8b3d
00000060: 998b da3d 6e76 0ebd cd99 043f 694e 07bf
00000070: 06d0 31bf e2a7 39be cc72 0a3e 4465 73be
00000080: b9ae 013e 484a 1cbe 7506 6a3e c20d 9b3e
00000090: 9f90 b0bd d7f7 cabe 408f 333e e3d4 283e
000000a0: b55e 403d 62af 063e e9dc c0be 0eee eb3e
000000b0: 24ca 233f a1ac d53e e396 28be add8 503e
000000c0: 3aa0 7cbd f4e0 8e3e a92c c63e b43e 943e
000000d0: 3f50 87bf 1063 17be bdda 523e 9447 2b3e
000000e0: 5965 cc3e 75dc 88be 3bed 12bd 8bc5 4e3f
000000f0: a9a6 8ebe b8e8 883d 6c6b 663c b7ca 353e
00000100: c94c 72be d281 03bf f94d 5cbe 0eaa 1cbe
00000110: 21cb 803e 2436 fcbd 8065 c9bd 8a0e 703e
00000120: db4f 2f3e bf88 95be c713 3cbe 852e 673f
00000130: 016d 0ebd 3080 7f3e f6a5 433e fe79 2b3e
00000140: 7c8a 333e 045b 383e e473 d93e 2270 e1be
00000150: eea9 75bf 89ac 15bf bcca 263e 6bc7 613c
00000160: 9f04 08be 0bff 123e 86f3 3f3e 1c61 1cbf
00000170: 8211 433f f01b 183f bb4c 863e dfb8 63be
00000180: 62c7 26be ba97 97bd 56fb 18be ba47 563e
00000190: cb22 613d b0c4 9fbe d013 ed3d 7bcb 0ebe
000001a0: 97c4 663d f3a0 353c 9a2d f6be dce4 3ebf
000001b0: 62bf 5f3e 9c47 c73c 4450 9dbe 2a7c 063e
000001c0: 4215 293d ad7e 8fbe ab13 0a3e 4807 62be
000001d0: 469e 053d 8eb5 97be ea5f a13e 71ba 47be
000001e0: ae9e 9c3c 77a5 57be cb79 bd3c c36a e2be
000001f0: 3ff3 f43c 0001 8b3d 12d4 56be 9c52 653e
00000200: d021 fb3e 2eba a03e c6ef d93d 36e8 a63e
00000210: 42f8 19bf 494c e03c a80e e63c 8d96 d13c
00000220: 7cf6 34be 6c49 1cbf 3a90 b5bd ec88 fb3e
00000230: d6a6 7c3e d3f3 0d3d 77bf 073d 16ab 5dbd
00000240: 9f9c cdbd bb5a e53e b69c 6bbd 70e4 1abe
00000250: bfdf 6a3f 3515 373f 52dd a2be 05cb bcbe
00000260: cc39 95bd 88b7 a73e b8b9 8dbe 9b14 573f
00000270: 01d3 ba3e 76ea 4e3c bb68 983e 1ccc 143e
00000280: 5de7 92be adb1 2bbd 1508 e5be 44a5 aabe
00000290: 8de9 093f bca4 13bc 6bbd 503e cf6c c8bd
000002a0: 55ec 2c3e 27b7 30be b012 93bd c1c3 56bc
000002b0: 102d 7f3e 7a9a 27be 104b 44be b08a 32be
000002c0: f577 07bc 8f01 a13e c926 943e 717b c4bd
000002d0: 0811 953e 8537 1f3d 14ed a03e 6106 e3bd
000002e0: 5b96 d43e 7647 adbe 3870 2bbd 4dc2 37bf
000002f0: bc75 93be 4317 a73d c5bc 1a3d 648e 5e3e
00000300: 8bbe debc 743e a4bd 029d ab3e 2501 2f3d
00000310: 471a dd3d b6cd 52bd 47d4 66bd 25c3 aa3d
00000320: bf1f d93e f72d b33e 7691 8a3e 29b8 cd3e
00000330: 0045 0ebf f46d d1bd c7e7 bdbd 93be 2a3e
00000340: f554 0d3e 5bf1 023e 1e1c cbbe 85bd 6fbe
00000350: 6d04 043f 1bc4 323e 97b1 80be 091e 9fbe
00000360: b3e0 a5be 5332 43bf bdc6 12bd 3548 243f
00000370: 44ff a0bd 0978 0c3e f4fd 793a 8b4e 37bd
00000380: d2fa b2be 66d7 a53e 8f98 5abe 5a5a 973e
00000390: e160 113f 0046 c03e 79e5 c13e a760 3cbe
000003a0: 4f05 dabd 1570 5fbe 7de9 c2bd 91e7 07bf
000003b0: 7849 5f3f cd99 293f 4794 7d3e 5b74 cbbe
000003c0: 3a0d 943e 26b8 27be 3438 293e f30e d4be
000003d0: d00c d93e 2f99 2dbe 6295 d4bd 1378 393d
000003e0: ab7e 5abe 1481 053e 4928 1a3e 60d2 ee3d
000003f0: 6e0c 5c3e 1ec7 81be b66d 1cbe 9aa3 233e
-0.23479255 -0.24816874 -0.14508295 -0.32211512 0.14114845 0.30037585 0.11064562 -0.1547204
0.17755365 0.037288334 -0.32833692 -0.8282365 -0.05651611 0.21429907 -0.16389455 0.03700837
0.26591715 -0.0039257435 -0.025488593 -1.0304552 -0.7382215 -0.40218717 0.3363812 0.06832689
0.106711574 -0.034780912 0.5179718 -0.5285402 -0.69458044 -0.18130448 0.13520354 -0.23769099
0.12664308 -0.15262711 0.22854026 0.30283934 -0.08621334 -0.39642212 0.17535114 0.1648746
0.04696532 0.1315284 -0.3766854 0.4608006 0.6398032 0.41733268 -0.16463809 0.20395155
-0.06167624 0.27906 0.38705948 0.2895409 -1.0571364 -0.14783883 0.20591255 0.16726524
0.39921072 -0.26730695 -0.03587077 0.80770177 -0.27861527 0.066850126 0.014063697 0.17753111
-0.23662104 -0.51369965 -0.21514119 -0.15299246 0.25154975 -0.12315014 -0.09833813 0.23443046
0.17120306 -0.2920589 -0.1836692 0.9030536 -0.034771923 0.24951243 0.19106278 0.16745755
0.17533296 0.1800347 0.4247123 -0.44030863 -0.9596242 -0.5846639 0.16288275 0.013780455
-0.13283013 0.14355104 0.1874524 -0.6108568 0.7619859 0.5941763 0.26230416 -0.22238491
-0.16286996 -0.074019864 -0.14939627 0.20925799 0.05496482 -0.31204748 0.115760446 -0.13944809
0.056339826 0.011085737 -0.48081666 -0.7456796 0.2185035 0.024326138 -0.307253 0.13133302
0.04128004 -0.28026333 0.13484065 -0.2207309 0.032621644 -0.29630703 0.3151849 -0.19504716
0.019118633 -0.21059214 0.023129364 -0.44222078 0.029901145 0.067873 -0.20979336 0.22394794
0.49049234 0.31392044 0.10641436 0.32599038 -0.60144436 0.027380126 0.02808316 0.025584484
-0.17672151 -0.6104953 -0.088654 0.491279 0.24673018 0.034656357 0.03314158 -0.05411824
-0.10039639 0.44795784 -0.057522498 -0.15126204 0.9174766 0.71516734 -0.3180948 -0.36873642
-0.072864145 0.3275721 -0.27680755 0.84015816 0.36489108 0.012629142 0.29767403 0.14530987
-0.2869214 -0.04191749 -0.4473273 -0.33329213 0.53871995 -0.009011444 0.20384757 -0.097863786
0.16887029 -0.17257367 -0.07181299 -0.013108195 0.24919534 -0.16367522 -0.19169259 -0.17435718
-0.008268346 0.31446502 0.2893584 -0.09593857 0.29114556 0.038871307 0.31430876 -0.11085201
0.41520962 -0.33843583 -0.041855067 -0.71780854 -0.28800762 0.08158734 0.03777768 0.21734005
-0.027190467 -0.080197245 0.33518225 0.0427257 0.10796028 -0.051465712 -0.056354787 0.08338002
0.42407033 0.34996006 0.27064103 0.40179566 -0.55574036 -0.1022605 -0.09272724 0.16674261
0.1380194 0.12787382 -0.3966989 -0.2341214 0.51569253 0.17457621 -0.2513549 -0.31077603
-0.32397994 -0.76248664 -0.035834063 0.6417268 -0.07861188 0.13717665 0.0009536438 -0.04475264
-0.34956986 0.32390898 -0.21347259 0.2956112 0.5678845 0.37553406 0.37870386 -0.18396245
-0.10645544 -0.218201 -0.095171906 -0.5308772 0.8722148 0.66250306 0.24763595 -0.3973721
0.2891634 -0.16378841 0.16525346 -0.41417655 0.42392588 -0.16952966 -0.10380055 0.045280527
-0.21337382 0.1303752 0.1505443 0.116612196 0.21489117 -0.25347227 -0.15276226 0.15980378

bias f4 [32]
00000000: 723c a03e d9ba 153e b478 823e 9c1b f93e
00000010: bb20 7ebe c73a b03e a8c4 953e ad82 8c3e
00000020: 87fc 1b3c ba4e aa3e 1406 753e e8e5 5abd
00000030: a833 45be 3e57 aa3e ecb8 0cbe 939e b73e
00000040: 5f9f 653e 7a84 833e 31f2 38bd 8878 9b3e
00000050: c8d3 aa3e 9822 a9be 29ca ab3e 2ae7 df3e
00000060: c7e5 b5be adc5 393e 9c91 4f3e b45e a93e
00000070: 606c f93d afaf de3e 6a3f 643e 098b bcbe
0.31296116 0.14622058 0.25482714 0.48653877 -0.24817173 0.34419844 0.292516 0.27443448
0.009520656 0.3326319 0.239281 -0.053441912 -0.19257987 0.33269686 -0.13742417 0.3586317
0.22424076 0.2568701 -0.045152847 0.30365396 0.333647 -0.33034205 0.33552673 0.43731052
-0.3552687 0.18141814 0.2027039 0.33080065 0.12178874 0.4349341 0.22289816 -0.36824825

weight f4 [4, 32]
00000000: eeb4 1abe e9b5 3dbe e72f 92be 911e a8bd
00000010: b57a a63d c353 21bd 4391 f5bd 244c a13e
00000020: 301b e3bd 1cc7 edbd 0208 30be 28db c3bd
00000030: 6633 b83d b23e 86be b1c8 48bc b422 bdbe
00000040: 9611 9fbe 8720 7a3e 9f0d f73c 1445 0b3e
00000050: 4275 0abd f5ab 193e 7480 17be 762c 13be
00000060: 6a1a 07bd 0976 51be 0b5d 87be 984a a63c
00000070: f6c4 6d3d f39e c5bd 0332 9cbe 6d52 05be
00000080: 0775 96be fe05 b6bd eabf 7b3e cc10 8f3e
00000090: be42 863d 02f3 33be 4f41 133f d522 173f
000000a0: 3057 553d 9144 cd3e 7f19 ce3e fd70 0abf
000000b0: ca25 a4bd ca71 15be 0eb1 003d ac91 72bc
000000c0: f36c 273f 3ee6 b23d 0a6d 92be a160 2d3e
000000d0: 9fc8 c2be 7818 623d 254c f33a 07c7 8dbd
000000e0: da17 0bbd 4e62 e53e 39a8 4cbe 2258 ac3c
000000f0: 8bb8 a9be 7e6f f6be fb25 62be 7284 823b
00000100: 2ebc 3c3e 94ad 223f 5d91 083f b61f d03e
00000110: 1569 ab3d 18b5 83be 076b 74be 3ce6 15bf
00000120: c040 d9bc 1c90 ecbe 39a7 043e 43cd c93e
00000130: 3087 f53d 0cc8 e63e 862b 023e 96cb db3e
00000140: a1cc 84be 1556 03bf d58d 8d38 a3f4 fbbe
00000150: c389 9f3e ad19 dc3d d280 603d bb57 a53e
00000160: bd80 d8bd ca2e 91be 5f5d 3d3d 5598 f3be
00000170: 3cac a3be d945 8f3e 2ba7 723e f231 6e3d
00000180: f56a 7b3d d53a 96bb 94ff b0be 6fcc cabe
00000190: 378a a9ba 3c8a 113f 308f a9be d0cc 6cbb
000001a0: 6929 133e 8452 043e 772c 29bf 2264 9b3e
000001b0: 8085 b8bc 90e8 143e 5335 833d 9056 903d
000001c0: 1128 1fbc 5b66 073f dfa4 003f 154c e03e
000001d0: be82 b63e 495d 1e3d fdd5 8e3d 2d0f 6cbe
000001e0: c407 c0bd 9db5 f43b fd4a 563e 5d71 d03e
000001f0: ade1 bc3e ddb8 993e 0e95 e53a 26cd 953d
-0.15108082 -0.18526424 -0.28552172 -0.08208955 0.08128873 -0.039386522 -0.11990597 0.31503403
-0.1108917 -0.11610243 -0.17190555 -0.09563285 0.089941785 -0.26219708 -0.01225488 -0.3694054
-0.31068105 0.2442647 0.030157862 0.1360057 -0.033803232 0.15007003 -0.14795095 -0.14372429
-0.032984175 -0.20455183 -0.26438174 0.020299241 0.058049165 -0.09649458 -0.30506906 -0.13019724
-0.2938616 -0.08887862 0.24584928 0.27942502 0.06555699 -0.17573169 0.5752153 0.59037524
0.0520851 0.40091375 0.40253827 -0.54078656 -0.0801502 -0.14594188 0.031418853 -0.014805239
0.6540062 0.087353215 -0.28598815 0.16931392 -0.38043687 0.055199116 0.0018562122 -0.06922727
-0.033958293 0.44801563 -0.19986047 0.021038119 -0.33148608 -0.48131937 -0.22084801 0.003983074
0.1843116 0.6354611 0.53346807 0.40649194 0.08369652 -0.257241 -0.23868953 -0.58554435
-0.026520133 -0.46203697 0.12954415 0.39414415 0.119886756 0.450745 0.12711915 0.4292876
-0.2593737 -0.51303226 6.749822e-05 -0.4921008 0.3115979 0.10747085 0.054810353 0.32293496
-0.1057143 -0.2835601 0.046231624 -0.47577158 -0.31967342 0.27982977 0.23696582 0.0581531
0.0613813 -0.00458465 -0.3456999 -0.39609095 -0.0012934868 0.56851554 -0.33117056 -0.003613282
0.14371265 0.12922102 -0.6608347 0.30349833 -0.022524595 0.1454184 0.06406655 0.070477605
-0.009714142 0.5289056 0.50251573 0.43808046 0.35646623 0.038663182 0.06974409 -0.23052664
-0.09376481 0.007467939 0.20927043 0.4071149 0.36890927 0.30023852 0.0017515735 0.073145196

bias f4 [4]
00000000: 97e9 7fbe 93a6 0dbe f14c 71bb 38e2 2bbe
-0.24991451 -0.13833074 -0.0036819542 -0.16785514
