reinforce-baseline/models/LunarLander-v2-6000-model.pt (torch, 4303 bytes, 4 tensors)

weight f4 [32, 8]
00000000: daf1 a1be e5fa 92be a1ce 1dbe e4c1 ccbe
00000010: ce92 9a3e b0d2 d63e 2af1 733d ef99 79be
00000020: 0465 f83d c472 5bbd 749a babe f8bd 6abf
00000030: e2a0 1abd 3cfe a03e 1bb7 3abe 388a 4cbc
00000040: e5d9 923e 418a 9bbd 7bb5 62bd f70e 8fbf
00000050: c2cb 66bf 0c8b a6be 248a 873e 79ff 0ebd
00000060: 2a25 0e3e 28e9 e0bd 468c f93e ff06 17bf
00000070: 2a6a 62bf c837 d6bd e8e5 a53d cf71 aabe
00000080: 34ef 0f3e 6c78 29be d368 6b3e fa37 823e
00000090: 26ae f9bd 7713 f9be 86ec ea3d 0fbb 0d3e
000000a0: 95f8 28bc 7dff 623e fe0a aebe fc2c 023f
000000b0: 2057 5b3f a7c4 9f3e 37ee abbd 2cd1 9e3e
000000c0: a0b1 d63c 674b ac3e 927e c33e 4130 a43e
000000d0: f7cb a4bf cd9e 02be c28f 673e 39e3 2b3e
000000e0: accc e63e 5d1f 7cbe c20d a9bc 75fc 8c3f
000000f0: 6713 adbe 3e74 763d 6c2e c13d 4a19 793e
00000100: 4ffc 89be aaff 05bf ff14 71be 60f5 a6bd
00000110: be40 a43e 8be4 20be 7013 f73c 7f01 ac3e
00000120: a06f 503e e4e7 50be faa2 32be 0b19 993f
00000130: 665a 95bd d829 273e 32d1 913e 147b 8a3e
00000140: 6999 7a3e 9666 0e3e 113c cf3e feb5 e5be
00000150: 1a71 9ebf 0ff9 1fbf 02aa d63d c87c 73bd
00000160: ffaf 5bbe 4654 db3d aea7 313e 6750 28bf
00000170: a7b4 713f c59e 363f f6b7 ac3e 1ebf 25be
00000180: 9947 31be 31e0 6dbd 574f 1cbe c52f 183d
00000190: 9850 4dbb 10c4 fabe 48b5 d83d 1b2e 73bd
000001a0: 3cbd 0cbc 4f63 4abd 6053 ffbe 4988 55bf
000001b0: e62a 9d3e c2c0 4c3d 5add b5be 6c0d bb3d
000001c0: 7890 7bbd 9c4a 58be b165 f63d 2695 bdbe
000001d0: a4e4 7d3d 4d0c 00bf 7b4f 793e 2154 88be
000001e0: d7b7 fdbc 5364 89be 1ad4 37bb 34c7 0bbf
000001f0: 38e5 523d 3209 e13d c444 8bbe 9eae 213e
00000200: 3c37 0e3f d27b d53e e139 e83d 9c6e b83e
00000210: fa7e 46bf 6b3e 383c 2ef4 a13d 3fdd 883d
00000220: 3875 34be b47b 25bf 70eb 1dbe 125e 593f
00000230: a164 ac3e b4aa f9bd aeed 223e 947b e83d
00000240: a198 96bd 125d 023f a225 06bd 3dbc 3cbe
00000250: 0290 883f d3a6 263f f4bb f5be 494b dbbe
00000260: 3de1 94bd b0f8 e53e 2229 69be bbe2 6a3f
00000270: 734e db3e 10fb 55bd 5c96 cc3e 0a77 8f3e
00000280: e1d0 bebe 1b0f 9bbd c7c5 e0be ab13 c3be
00000290: 0eaa 433f 8128 07bd ace8 3d3e afe4 babd
000002a0: b66d 2d3e ac8c 30be 8a39 94bd ce48 59bc
000002b0: f18f 7f3e db6f 28be 104b 44be b08a 32be
000002c0: bfd9 51bd 9835 ca3e d32a 9e3e 62ae 1bbe
000002d0: f0f2 cf3e bba1 b6ba eb08 a73e 6a8e 85bd
000002e0: 25e6 cd3e ec04 dbbe d797 9fbd 108a 4ebf
000002f0: c43f babe f769 1c3e 9fe7 5cbd afb6 c53d
00000300: e985 cabc 88db a4bd 52bf a73e d41f 3e3d
00000310: 01db d33d 6b43 39bd 47d4 66bd a6b3 8a3d
00000320: a10c f23e 8bb8 ed3e 86b1 903e bf8d e03e
00000330: 81b7 32bf 4d3d bbbd ba27 08bc 83c2 663e
00000340: f832 d23d c137 203e 82d3 c0be 96cc 8fbe
00000350: 06bd 293f 0927 553e 93a9 a2be 5c89 b0be
00000360: e4e7 a8be f653 51bf 9080 21bd 0d1a 7b3f
00000370: 1f2c 9c3d ba5a dfbb acdc f33d fea1 f83d
00000380: 8645 bcbe 293e ce3e 507c 42be cfb0 a63e
00000390: 5ccf 4e3f 8557 813e ca70 e13e decb 78bd
000003a0: 7b5f 49be 80d0 8bbe f9a7 c5bd c5bd 11bf
000003b0: 833e 8b3f f0ce 433f f52e 813e d360 d0be
000003c0: 2ff4 543e 3dcb 66be 387c 013e c354 04bf
000003d0: c60b 043f 8104 48be e387 3cbe a2f4 f93a
000003e0: 14c9 a4be 6117 983d f9bd 133e f29f 1c3d
000003f0: 998e 583e 1f84 bcbe ccaa 12be 4fc3 a43e
-0.3162983 -0.28707042 -0.15410854 -0.39991677 0.30190128 0.41957617 0.059556164 -0.24375127
0.12128642 -0.053576246 -0.36445963 -0.9169612 -0.037751086 0.31443965 -0.18233912 -0.012484126
0.28681865 -0.07594729 -0.055348855 -1.1176442 -0.9015466 -0.3252796 0.2647258 -0.034911606
0.13881364 -0.10981971 0.48739833 -0.5899505 -0.88443244 -0.10459858 0.08100492 -0.33289954
0.14056093 -0.16549844 0.22989206 0.25433332 -0.12191419 -0.48647663 0.114708945 0.13840888
-0.010313173 0.22167774 -0.3399276 0.5084989 0.8567982 0.3120472 -0.08395045 0.3101896
0.026207745 0.33651277 0.38182503 0.32068065 -1.2874745 -0.1275589 0.22613433 0.16785897
0.45078027 -0.24621339 -0.020636443 1.1014544 -0.33803865 0.06016945 0.094326824 0.24326053
-0.2695031 -0.5234324 -0.23543166 -0.0815227 0.32080644 -0.15712182 0.030160636 0.3359489
0.20355082 -0.20400959 -0.17444983 1.1960768 -0.07292633 0.16324556 0.28479916 0.27047026
0.24472584 0.13906321 0.40475515 -0.44865412 -1.2378266 -0.6248941 0.10481645 -0.059445173
-0.21453856 0.10709433 0.17349121 -0.65747684 0.9441628 0.71336013 0.337341 -0.16186187
-0.17312469 -0.058075134 -0.15264641 0.03715493 -0.0031328555 -0.4897771 0.10581452 -0.05937014
-0.008590039 -0.049411114 -0.49868298 -0.8341108 0.3069679 0.049988516 -0.3552044 0.091334194
-0.061417073 -0.21122211 0.12031115 -0.37027854 0.061985627 -0.5001877 0.24346726 -0.26626685
-0.03097145 -0.26834354 -0.0028050006 -0.54600835 0.05148813 0.10988082 -0.27200902 0.15789267
0.5555303 0.4169603 0.113391645 0.36021888 -0.775375 0.01124535 0.07907902 0.06682824
-0.1762284 -0.6464188 -0.15421844 0.84909165 0.33670524 -0.12190762 0.1591098 0.11351696
-0.073533304 0.50923264 -0.032750733 -0.18431182 1.0668948 0.65098304 -0.4799496 -0.42830876
-0.07269523 0.44916296 -0.22769597 0.91752213 0.4283329 -0.052241385 0.39958465 0.28020507
-0.37268737 -0.075712405 -0.43900892 -0.38100943 0.7643136 -0.032997612 0.18545789 -0.09125649
0.16936383 -0.17241162 -0.07237537 -0.013261987 0.24957253 -0.1644892 -0.19169259 -0.17435718
-0.05123305 0.39494014 0.30892047 -0.1520324 0.40615034 -0.0013933697 0.3262399 -0.06521304
0.4021465 -0.42777193 -0.07792633 -0.80679417 -0.36376774 0.15274797 -0.05393183 0.09653985
-0.024722056 -0.08049685 0.32763153 0.046417072 0.10344506 -0.04523031 -0.056354787 0.067725465
0.4727526 0.46429858 0.2826044 0.43858144 -0.69811255 -0.091425516 -0.008310253 0.22535138
0.10263628 0.15646268 -0.37661368 -0.28085774 0.6630405 0.20815672 -0.3177 -0.34479797
-0.32989419 -0.8176874 -0.039429247 0.98086625 0.07625603 -0.0068162354 0.11907324 0.121402726
-0.36771792 0.402818 -0.18992734 0.3255677 0.80785155 0.25262085 0.44031364 -0.060741298
-0.19665329 -0.2730751 -0.09651179 -0.5693019 1.0878452 0.76487637 0.25231138 -0.4069887
0.20796274 -0.22538467 0.12645042 -0.51691836 0.51580465 -0.19532968 -0.18411212 0.0019070099
-0.3218466 0.07426334 0.14427938 0.038238473 0.21148147 -0.3681955 -0.14322966 0.3218026

bias f4 [32]
00000000: 026a a83e 8340 4d3e 860a 933e 70cd 013f
00000010: 40d0 85be 965d b43e 4460 9e3e 7a9b 793e
00000020: 559e cf3c f150 a03e 2502 6e3e 200e a83c
00000030: 73bc a0bd e213 c13e 9b72 d2bb 70ba d53e
00000040: 444b 893e 2e12 443e b156 3fbd 2f9b 9e3e
00000050: e93f af3e 8693 a8be 5814 d13e 1a38 ed3e
00000060: 733f bcbe dbc8 6e3e 38c7 603e 05fa 843e
00000070: 0166 153e 4944 de3e df9a 893e e5be 86be
0.32893378 0.2004414 0.28718966 0.507041 -0.26135445 0.3522765 0.3093282 0.24375716
0.025344053 0.31311753 0.23243006 0.020514548 -0.07848444 0.37710482 -0.0064223534 0.41743803
0.26815236 0.1914756 -0.046713535 0.3097777 0.34228447 -0.3292505 0.40835834 0.46331865
-0.36767158 0.23318808 0.21950996 0.25972 0.14589693 0.43411472 0.2687597 -0.26317516

weight f4 [4, 32]
00000000: a567 80be d918 9ebe 5076 bfbe afa4 32be
00000010: 728a 9c3d 1fe3 16be 8ffc 4fbe 0126 923e
00000020: 9f47 0dbe 172e 15be 19dd 82be a8d1 3bbe
00000030: 1f72 8a3d bfff bcbe 376e 46bd f3e5 f9be
00000040: 4a2e dbbe 134d 4f3e 34c5 49bd 0f7f 4b3d
00000050: 707e 02be 2ea4 193e 05d5 7fbe 7d0a 69be
00000060: ad44 06bd 45a8 a4be 854a bebe bd67 b1bc
00000070: 4c4b 0cbd 24f5 37be c293 d4be 2686 1bbe
00000080: 77e1 b8be 3b70 b0bd 4450 953e f13c a83e
00000090: 155f 453d ec7d 4cbe e083 2f3f 093a 343f
000000a0: 71c1 94bc 076d ef3e fcde f53e 9107 29bf
000000b0: 4f13 37be cede 27be fbab 3ebd 9667 14bd
000000c0: 5b16 4e3f de53 a33d a460 a7be 1903 583e
000000d0: 3720 ddbe f4b0 613d 38e6 be3c ac30 60bd
000000e0: 55b9 17bd d5fc 183f 7e39 51be 757f 103d
000000f0: 9f5e babe 7e56 17bf 7c5e 94be d3ad 1bbe
00000100: e11e a53e 16a4 383f caa9 0f3f 12fb e53e
00000110: d4f7 fe3d 9377 93be f7d9 9dbe 722a 4abf
00000120: e933 2abd 5f28 1bbf 7f95 023e 27aa f43e
00000130: 8530 923e 5e61 033f 8779 8c3e 9470 043f
00000140: 26cc b3be bedf 33bf 70d0 0dbd 25b2 24bf
00000150: 384f b53e 29cd dc3d 9f6f be3c b0a5 cd3e
00000160: b09e d2bd b0da d0be 1a2f 7f3d 6ee2 16bf
00000170: 4fe4 c0be 9453 ca3e 53c1 a53e f4a2 833e
00000180: 622e 9439 7117 6ebd 46b4 c6be c65c eabe
00000190: 800b 07bd f6d7 2a3f 7108 a9be 0ea1 693d
000001a0: 4f28 753e 21ec 4d3e c65d 35bf ccc0 a93e
000001b0: 9a0d adbd cdc5 0f3e 1f29 81ba 0633 1b3d
000001c0: fcd4 74bc b053 353f d8d4 1b3f 94a9 143f
000001d0: 56e4 ce3e c68f 1d3d ace5 0b3e f978 98be
000001e0: 90d0 bebd 0ed7 1d3d e733 7b3e c155 053f
000001f0: 4d32 fd3e ef62 943e dcb7 273b e732 6b3d
-0.25079075 -0.30878332 -0.37394953 -0.17445634 0.07643594 -0.14735077 -0.20311187 0.2854462
-0.13796853 -0.14568363 -0.2555931 -0.18341696 0.06760048 -0.3691387 -0.048444953 -0.4880825
-0.42808753 0.20244245 -0.049260333 0.04968172 -0.12743545 0.15004036 -0.24983604 -0.22757907
-0.032780338 -0.3215963 -0.3716623 -0.021655912 -0.034251496 -0.17964607 -0.4151898 -0.15187892
-0.36109516 -0.08615156 0.291628 0.32858995 0.04818638 -0.1996991 0.685606 0.70401055
-0.018158646 0.4676287 0.48021686 -0.6602717 -0.1787846 -0.16393587 -0.046550732 -0.0362316
0.8050286 0.07974981 -0.32690918 0.21094932 -0.4318864 0.055100396 0.023303136 -0.054733917
-0.03704198 0.5976079 -0.20432088 0.035277802 -0.36400315 -0.5911635 -0.28978336 -0.15203027
0.3225012 0.72125375 0.5611845 0.44918114 0.12449613 -0.28802165 -0.30830356 -0.78971016
-0.04155341 -0.60608476 0.1275234 0.47786066 0.28552642 0.51320446 0.27436468 0.5173428
-0.3511669 -0.7026328 -0.03462261 -0.64334327 0.35412002 0.10781319 0.023246584 0.40165472
-0.102841735 -0.40791845 0.06230078 -0.58939254 -0.37674186 0.3951689 0.32374057 0.2571026
0.00028263318 -0.058127824 -0.38809413 -0.45773906 -0.03296995 0.6673578 -0.33014253 0.05703836
0.23941158 0.20109607 -0.7084621 0.33154905 -0.0844986 0.14040299 -0.0009854174 0.037890457
-0.014943358 0.7083082 0.6087165 0.58071256 0.40408581 0.03846719 0.13661832 -0.29779795
-0.09317124 0.03853517 0.24531518 0.52083975 0.4945244 0.2898173 0.0025591766 0.05742159

bias f4 [4]
00000000: 1ac4 b2be cbcd f0bd 28e9 6d3c d662 1ebe
-0.3491524 -0.11758002 0.014520921 -0.1546739
