reinforce-baseline/models/LunarLander-v2-2000-model.pt (torch, 2831 bytes, 4 tensors)

weight f4 [5, 8]
-0.099609256 0.29868522 -0.40709007 -0.2463595 0.8032549 0.20635511 -0.35573727 -0.049049262
0.243693 0.29647297 0.469623 -0.12743455 -0.788631 -0.37112114 0.44368294 -0.11591473
0.08911075 -0.2583722 -0.015100543 -0.23808321 -0.01577059 0.173989 -0.27490067 0.00789936
-0.10535499 -0.005458424 0.5306388 -0.43823877 -0.74963784 -0.45471293 -0.01738374 0.19238205
0.3838852 0.16686368 -0.2100629 -0.46142903 0.6439818 0.5634692 -0.09362372 0.30713028
00000000: f0ff cbbd 45ed 983e 1c6e d0be aa45 7cbe
00000010: 1da2 4d3f c14e 533e 3223 b6be e1e7 48bd
00000020: a88a 793e 4ecb 973e 6d72 f03e 347e 02be
00000030: b9e3 49bf 9703 bebe 692a e33e b464 edbd
00000040: b27f b63d 5c49 84be 4568 77bc 16cc 73be
00000050: 5331 81bc 2c2a 323e c8bf 8cbe 516c 013c
00000060: 5bc4 d7bd 94dc b2bb f2d7 073f d560 e0be
00000070: 44e8 3fbf 22d0 e8be 5868 8ebc cdff 443e
00000080: 9a8c c43e 50de 2a3e bb1a 57be 6d40 ecbe
00000090: fedb 243f 843f 103f cbbd bfbd 2e40 9d3e

bias f4 [5]
0.07809109 0.32018617 0.40311056 0.553993 0.19442497
00000000: 39ee 9f3d 71ef a33e 8264 ce3e 7cd2 0d3f
00000010: 5717 473e

weight f4 [4, 5]
-0.48271757 -0.013549996 0.015829585 -0.08511203 -0.6991128 -0.67285144 0.5693777 -0.422831
0.5063067 -0.4421413 -0.00027087834 0.11685415 0.30619267 0.38694397 0.21144839 0.3825113
-0.20279337 -0.29942876 -0.44614112 0.6456652
00000000: c226 f7be cd00 5ebc 0cad 813c 374f aebd
00000010: 0ef9 32bf fe3f 2cbf bdc2 113f 4e7d d8be
00000020: 519d 013f 5860 e2be ad04 8eb9 3b51 ef3d
00000030: 49c5 9c3e 851d c63e ed85 583e 85d8 c33e
00000040: 11a9 4fbe ba4e 99be 9c6c e4be 514a 253f

bias f4 [4]
-0.21169274 -0.27753374 0.38392684 -0.19109051
00000000: fbc5 58be e718 8ebe 0f92 c43e 3bad 43be
